…
#39;split&#39;: &lt;function fastai.vision.learner._resnet_split(m)&gt;, &#39;stats&#39;: ([0.485, 0.456, 0.406], [0.229, 0.224, 0.225])} . And the model layers: . m = resnet18() children = list(m.children()) print(f&#39;The network has {len(children)} children&#39;) children . The network has 10 children . [Conv2d(3, 64, kernel_size=(7, 7), stride=(2, 2), padding=(3, 3), bias=False), BatchNorm2d(64, eps=1e-05, momentum=0.1, affine=True, track_running_stats=True), ReLU(inplace=True), MaxPool2d(kernel_size=3, stride=2, padding=1, dilation=1, ceil_mode=False), Sequential( (0): BasicBlock( (conv1): Conv2d(64, 64, kernel_size=(3, 3), stride=(1, 1), padding=(1, 1), bias=False) (bn1): BatchNorm2d(64, eps=1e-05, momentum=0.1, affine=True, track_running_stats=True) (relu): ReLU(inplace=True) (conv2): Conv2d(64, 64, kernel_size=(3, 3), stride=(1, 1), padding=(1, 1), bias=False) (bn2): BatchNorm2d(64, eps=1e-05, momentum=0.1, affine=True, track_running_stats=True) ) (1): BasicBlock( (conv1): Conv2d(64, 64, kernel_size=(3, 3), stride=(1, 1), padding=(1, 1), bias=False) (bn1): BatchNorm2d(64, eps=1e-05, momentum=0.1, affine=True, track_running_stats=True) (relu): ReLU(inplace=True) (conv2): Conv2d(64, 64, kernel_size=(3, 3), stride=(1, 1), padding=(1, 1), bias=False) (bn2): BatchNorm2d(64, eps=1e-05, momentum=0.1, affine=True, track_running_stats=True) ) ), Sequential( (0): BasicBlock( (conv1): Conv2d(64, 128, kernel_size=(3, 3), stride=(2, 2), padding=(1, 1), bias=False) (bn1): BatchNorm2d(128, eps=1e-05, momentum=0.1, affine=True, track_running_stats=True) (relu): ReLU(inplace=True) (conv2): Conv2d(128, 128, kernel_size=(3, 3), stride=(1, 1), padding=(1, 1), bias=False) (bn2): BatchNorm2d(128, eps=1e-05, momentum=0.1, affine=True, track_running_stats=True) (downsample): Sequential( (0): Conv2d(64, 128, kernel_size=(1, 1), stride=(2, 2), bias=False) (1): BatchNorm2d(128, eps=1e-05, momentum=0.1, affine=True, track_running_stats=True) ) ) (1): BasicBlock( (conv1): Conv2d(128, 128, kernel_size=(3, 3), stride=(1, 1), padding=(1, 1), bias=False) (bn1): BatchNorm2d(128, eps=1e-05, momentum=0.1, affine=True, track_running_stats=True) (relu): ReLU(inplace=True) (conv2): Conv2d(128, 128, kernel_size=(3, 3), stride=(1, 1), padding=(1, 1), bias=False) (bn2): BatchNorm2d(128, eps=1e-05, momentum=0.1, affine=True, track_running_stats=True) ) ), Sequential( (0): BasicBlock( (conv1): Conv2d(128, 256, kernel_size=(3, 3), stride=(2, 2), padding=(1, 1), bias=False) (bn1): BatchNorm2d(256, eps=1e-05, momentum=0.1, affine=True, track_running_stats=True) (relu): ReLU(inplace=True) (conv2): Conv2d(256, 256, kernel_size=(3, 3), stride=(1, 1), padding=(1, 1), bias=False) (bn2): BatchNorm2d(256, eps=1e-05, momentum=0.1, affine=True, track_running_stats=True) (downsample): Sequential( (0): Conv2d(128, 256, kernel_size=(1, 1), stride=(2, 2), bias=False) (1): BatchNorm2d(256, eps=1e-05, momentum=0.1, affine=True, track_running_stats=True) ) ) (1): BasicBlock( (conv1): Conv2d(256, 256, kernel_size=(3, 3), stride=(1, 1), padding=(1, 1), bias=False) (bn1): BatchNorm2d(256, eps=1e-05, momentum=0.1, affine=True, track_running_stats=True) (relu): ReLU(inplace=True) (conv2): Conv2d(256, 256, kernel_size=(3, 3), stride=(1, 1), padding=(1, 1), bias=False) (bn2): BatchNorm2d(256, eps=1e-05, momentum=0.1, affine=True, track_running_stats=True) ) ), Sequential( (0): BasicBlock( (conv1): Conv2d(256, 512, kernel_size=(3, 3), stride=(2, 2), padding=(1, 1), bias=False) (bn1): BatchNorm2d(512, eps=1e-05, momentum=0.1, affine=True, track_running_stats=True) (relu): ReLU(inplace=True) (conv2): Conv2d(512, 512, kernel_size=(3, 3), stride=(1, 1), padding=(1, 1), bias=False) (bn2): BatchNorm2d(512, eps=1e-05, momentum=0.1, affine=True, track_running_stats=True) (downsample): Sequential( (0): Conv2d(256, 512, kernel_size=(1, 1), stride=(2, 2), bias=False) (1): BatchNorm2d(512, eps=1e-05, momentum=0.1, affine=True, track_running_stats=True) ) ) (1): BasicBlock( (conv1): Conv2d(512, 512, kernel_size=(3, 3), stride=(1, 1), padding=(1, 1), bias=False) (bn1): BatchNorm2d(512, eps=1e-05, momentum=0.1, affine=True, track_running_stats=True) (relu): ReLU(inplace=True) (conv2): Conv2d(512, 512, kernel_size=(3, 3), stride=(1, 1), padding=(1, 1), bias=False) (bn2): BatchNorm2d(512, eps=1e-05, momentum=0.1, affine=True, track_running_stats=True) ) ), AdaptiveAvgPool2d(output_size=(1, 1)), Linear(in_features=512, out_features=1000, bias=True)] . create_body function called by create_cnn_model which is called in cnn_learner, strips off the head by cut index as such: . ... if isinstance(cut, int): return nn.Sequential(*list(model.children())[:cut]) ... . In our case, it&#39;ll remove the last two layers of resnet18 network: AdaptiveAvgPool2d and fully connected Linear layer. . TODO: Why does it remove pooling layer? . body = create_body(resnet18, pretrained=False, cut=model_meta[resnet18][&#39;cut&#39;]) body . Sequential( (0): Conv2d(3, 64, kernel_size=(7, 7), stride=(2, 2), padding=(3, 3), bias=False) (1): BatchNorm2d(64, eps=1e-05, momentum=0.1, affine=True, track_running_stats=True) (2): ReLU(inplace=True) (3): MaxPool2d(kernel_size=3, stride=2, padding=1, dilation=1, ceil_mode=False) (4): Sequential( (0): BasicBlock( (conv1): Conv2d(64, 64, kernel_size=(3, 3), stride=(1, 1), padding=(1, 1), bias=False) (bn1): BatchNorm2d(64, eps=1e-05, momentum=0.1, affine=True, track_running_stats=True) (relu): ReLU(inplace=True) (conv2): Conv2d(64, 64, kernel_size=(3, 3), stride=(1, 1), padding=(1, 1), bias=False) (bn2): BatchNorm2d(64, eps=1e-05, momentum=0.1, affine=True, track_running_stats=True) ) (1): BasicBlock( (conv1): Conv2d(64, 64, kernel_size=(3, 3), stride=(1, 1), padding=(1, 1), bias=False) (bn1): BatchNorm2d(64, eps=1e-05, momentum=0.1, affine=True, track_running_stats=True) (relu): ReLU(inplace=True) (conv2): Conv2d(64, 64, kernel_size=(3, 3), stride=(1, 1), padding=(1, 1), bias=False) (bn2): BatchNorm2d(64, eps=1e-05, momentum=0.1, affine=True, track_running_stats=True) ) ) (5): Sequential( (0): BasicBlock( (conv1): Conv2d(64, 128, kernel_size=(3, 3), stride=(2, 2), padding=(1, 1), bias=False) (bn1): BatchNorm2d(128, eps=1e-05, momentum=0.1, affine=True, track_running_stats=True) (relu): ReLU(inplace=True) (conv2): Conv2d(128, 128, kernel_size=(3, 3), stride=(1, 1), padding=(1, 1), bias=False) (bn2): BatchNorm2d(128, eps=1e-05, momentum=0.1, affine=True, track_running_stats=True) (downsample): Sequential( (0): Conv2d(64, 128, kernel_size=(1, 1), stride=(2, 2), bias=False) (1): BatchNorm2d(128, eps=1e-05, momentum=0.1, affine=True, track_running_stats=True) ) ) (1): BasicBlock( (conv1): Conv2d(128, 128, kernel_size=(3, 3), stride=(1, 1), padding=(1, 1), bias=False) (bn1): BatchNorm2d(128, eps=1e-05, momentum=0.1, affine=True, track_running_stats=True) (relu): ReLU(inplace=True) (conv2): Conv2d(128, 128, kernel_size=(3, 3), stride=(1, 1), padding=(1, 1), bias=False) (bn2): BatchNorm2d(128, eps=1e-05, momentum=0.1, affine=True, track_running_stats=True) ) ) (6): Sequential( (0): BasicBlock( (conv1): Conv2d(128, 256, kernel_size=(3, 3), stride=(2, 2), padding=(1, 1), bias=False) (bn1): BatchNorm2d(256, eps=1e-05, momentum=0.1, affine=True, track_running_stats=True) (relu): ReLU(inplace=True) (conv2): Conv2d(256, 256, kernel_size=(3, 3), stride=(1, 1), padding=(1, 1), bias=False) (bn2): BatchNorm2d(256, eps=1e-05, momentum=0.1, affine=True, track_running_stats=True) (downsample): Sequential( (0): Conv2d(128, 256, kernel_size=(1, 1), stride=(2, 2), bias=False) (1): BatchNorm2d(256, eps=1e-05, momentum=0.1, affine=True, track_running_stats=True) ) ) (1): BasicBlock( (conv1): Conv2d(256, 256, kernel_size=(3, 3), stride=(1, 1), padding=(1, 1), bias=False) (bn1): BatchNorm2d(256, eps=1e-05, momentum=0.1, affine=True, track_running_stats=True) (relu): ReLU(inplace=True) (conv2): Conv2d(256, 256, kernel_size=(3, 3), stride=(1, 1), padding=(1, 1), bias=False) (bn2): BatchNorm2d(256, eps=1e-05, momentum=0.1, affine=True, track_running_stats=True) ) ) (7): Sequential( (0): BasicBlock( (conv1): Conv2d(256, 512, kernel_size=(3, 3), stride=(2, 2), padding=(1, 1), bias=False) (bn1): BatchNorm2d(512, eps=1e-05, momentum=0.1, affine=True, track_running_stats=True) (relu): ReLU(inplace=True) (conv2): Conv2d(512, 512, kernel_size=(3, 3), stride=(1, 1), padding=(1, 1), bias=False) (bn2): BatchNorm2d(512, eps=1e-05, momentum=0.1, affine=True, track_running_stats=True) (downsample): Sequential( (0): Conv2d(256, 512, kernel_size=(1, 1), stride=(2, 2), bias=False) (1): BatchNorm2d(512, eps=1e-05, momentum=0.1, affine=True, track_running_stats=True) ) ) (1): BasicBlock( (conv1): Conv2d(512, 512, kernel_size=(3, 3), stride=(1, 1), padding=(1, 1), bias=False) (bn1): BatchNorm2d(512, eps=1e-05, momentum=0.1, affine=True, track_running_stats=True) (relu): ReLU(inplace=True) (conv2): Conv2d(512, 512, kernel_size=(3, 3), stride=(1, 1), padding=(1, 1), bias=False) (bn2): BatchNorm2d(512, eps=1e-05, momentum=0.1, affine=True, track_running_stats=True) ) ) ) . Similarly, we need to determine the cut index for the custom model we use. Let&#39;s try EfficientNetB0 architecture available in torchvision library. First, we inspect the network layers to find out where to split it into backbone and head. . from torchvision.models import efficientnet_b0 m = efficientnet_b0() children = list(m.children()) print(f&#39;The network has {len(children)} children&#39;) children . The network has 3 children . [Sequential( (0): ConvNormActivation( (0): Conv2d(3, 32, kernel_size=(3, 3), stride=(2, 2), padding=(1, 1), bias=False) (1): BatchNorm2d(32, eps=1e-05, momentum=0.1, affine=True, track_running_stats=True) (2): SiLU(inplace=True) ) (1): Sequential( (0): MBConv( (block): Sequential( (0): ConvNormActivation( (0): Conv2d(32, 32, kernel_size=(3, 3), stride=(1, 1), padding=(1, 1), groups=32, bias=False) (1): BatchNorm2d(32, eps=1e-05, momentum=0.1, affine=True, track_running_stats=True) (2): SiLU(inplace=True) ) (1): SqueezeExcitation( (avgpool): AdaptiveAvgPool2d(output_size=1) (fc1): Conv2d(32, 8, kernel_size=(1, 1), stride=(1, 1)) (fc2): Conv2d(8, 32, kernel_size=(1, 1), stride=(1, 1)) (activation): SiLU(inplace=True) (scale_activation): Sigmoid() ) (2): ConvNormActivation( (0): Conv2d(32, 16, kernel_size=(1, 1), stride=(1, 1), bias=False) (1): BatchNorm2d(16, eps=1e-05, momentum=0.1, affine=True, track_running_stats=True) ) ) (stochastic_depth): StochasticDepth(p=0.0, mode=row) ) ) (2): Sequential( (0): MBConv( (block): Sequential( (0): ConvNormActivation( (0): Conv2d(16, 96, kernel_size=(1, 1), stride=(1, 1), bias=False) (1): BatchNorm2d(96, eps=1e-05, momentum=0.1, affine=True, track_running_stats=True) (2): SiLU(inplace=True) ) (1): ConvNormActivation( (0): Conv2d(96, 96, kernel_size=(3, 3), stride=(2, 2), padding=(1, 1), groups=96, bias=False) (1): BatchNorm2d(96, eps=1e-05, momentum=0.1, affine=True, track_running_stats=True) (2): SiLU(inplace=True) ) (2): SqueezeExcitation( (avgpool): AdaptiveAvgPool2d(output_size=1) (fc1): Conv2d(96, 4, kernel_size=(1, 1), stride=(1, 1)) (fc2): Conv2d(4, 96, kernel_size=(1, 1), stride=(1, 1)) (activation): SiLU(inplace=True) (scale_activation): Sigmoid() ) (3): ConvNormActivation( (0): Conv2d(96, 24, kernel_size=(1, 1), stride=(1, 1), bias=False) (1): BatchNorm2d(24, eps=1e-05, momentum=0.1, affine=True, track_running_stats=True) ) ) (stochastic_depth): StochasticDepth(p=0.0125, mode=row) ) (1): MBConv( (block): Sequential( (0): ConvNormActivation( (0): Conv2d(24, 144, kernel_size=(1, 1), stride=(1, 1), bias=False) (1): BatchNorm2d(144, eps=1e-05, momentum=0.1, affine=True, track_running_stats=True) (2): SiLU(inplace=True) ) (1): ConvNormActivation( (0): Conv2d(144, 144, kernel_size=(3, 3), stride=(1, 1), padding=(1, 1), groups=144, bias=False) (1): BatchNorm2d(144, eps=1e-05, momentum=0.1, affine=True, track_running_stats=True) (2): SiLU(inplace=True) ) (2): SqueezeExcitation( (avgpool): AdaptiveAvgPool2d(output_size=1) (fc1): Conv2d(144, 6, kernel_size=(1, 1), stride=(1, 1)) (fc2): Conv2d(6, 144, kernel_size=(1, 1), stride=(1, 1)) (activation): SiLU(inplace=True) (scale_activation): Sigmoid() ) (3): ConvNormActivation( (0): Conv2d(144, 24, kernel_size=(1, 1), stride=(1, 1), bias=False) (1): BatchNorm2d(24, eps=1e-05, momentum=0.1, affine=True, track_running_stats=True) ) ) (stochastic_depth): StochasticDepth(p=0.025, mode=row) ) ) (3): Sequential( (0): MBConv( (block): Sequential( (0): ConvNormActivation( (0): Conv2d(24, 144, kernel_size=(1, 1), stride=(1, 1), bias=False) (1): BatchNorm2d(144, eps=1e-05, momentum=0.1, affine=True, track_running_stats=True) (2): SiLU(inplace=True) ) (1): ConvNormActivation( (0): Conv2d(144, 144, kernel_size=(5, 5), stride=(2, 2), padding=(2, 2), groups=144, bias=False) (1): BatchNorm2d(144, eps=1e-05, momentum=0.1, affine=True, track_running_stats=True) (2): SiLU(inplace=True) ) (2): SqueezeExcitation( (avgpool): AdaptiveAvgPool2d(output_size=1) (fc1): Conv2d(144, 6, kernel_size=(1, 1), stride=(1, 1)) (fc2): Conv2d(6, 144, kernel_size=(1, 1), stride=(1, 1)) (activation): SiLU(inplace=True) (scale_activation): Sigmoid() ) (3): ConvNormActivation( (0): Conv2d(144, 40, kernel_size=(1, 1), stride=(1, 1), bias=False) (1): BatchNorm2d(40, eps=1e-05, momentum=0.1, affine=True, track_running_stats=True) ) ) (stochastic_depth): StochasticDepth(p=0.037500000000000006, mode=row) ) (1): MBConv( (block): Sequential( (0): ConvNormActivation( (0): Conv2d(40, 240, kernel_size=(1, 1), stride=(1, 1), bias=False) (1): BatchNorm2d(240, eps=1e-05, momentum=0.1, affine=True, track_running_stats=True) (2): SiLU(inplace=True) ) (1): ConvNormActivation( (0): Conv2d(240, 240, kernel_size=(5, 5), stride=(1, 1), padding=(2, 2), groups=240, bias=False) (1): BatchNorm2d(240, eps=1e-05, momentum=0.1, affine=True, track_running_stats=True) (2): SiLU(inplace=True) ) (2): SqueezeExcitation( (avgpool): AdaptiveAvgPool2d(output_size=1) (fc1): Conv2d(240, 10, kernel_size=(1, 1), stride=(1, 1)) (fc2): Conv2d(10, 240, kernel_size=(1, 1), stride=(1, 1)) (activation): SiLU(inplace=True) (scale_activation): Sigmoid() ) (3): ConvNormActivation( (0): Conv2d(240, 40, kernel_size=(1, 1), stride=(1, 1), bias=False) (1): BatchNorm2d(40, eps=1e-05, momentum=0.1, affine=True, track_running_stats=True) ) ) (stochastic_depth): StochasticDepth(p=0.05, mode=row) ) ) (4): Sequential( (0): MBConv( (block): Sequential( (0): ConvNormActivation( (0): Conv2d(40, 240, kernel_size=(1, 1), stride=(1, 1), bias=False) (1): BatchNorm2d(240, eps=1e-05, momentum=0.1, affine=True, track_running_stats=True) (2): SiLU(inplace=True) ) (1): ConvNormActivation( (0): Conv2d(240, 240, kernel_size=(3, 3), stride=(2, 2), padding=(1, 1), groups=240, bias=False) (1): BatchNorm2d(240, eps=1e-05, momentum=0.1, affine=True, track_running_stats=True) (2): SiLU(inplace=True) ) (2): SqueezeExcitation( (avgpool): AdaptiveAvgPool2d(output_size=1) (fc1): Conv2d(240, 10, kernel_size=(1, 1), stride=(1, 1)) (fc2): Conv2d(10, 240, kernel_size=(1, 1), stride=(1, 1)) (activation): SiLU(inplace=True) (scale_activation): Sigmoid() ) (3): ConvNormActivation( (0): Conv2d(240, 80, kernel_size=(1, 1), stride=(1, 1), bias=False) (1): BatchNorm2d(80, eps=1e-05, momentum=0.1, affine=True, track_running_stats=True) ) ) (stochastic_depth): StochasticDepth(p=0.0625, mode=row) ) (1): MBConv( (block): Sequential( (0): ConvNormActivation( (0): Conv2d(80, 480, kernel_size=(1, 1), stride=(1, 1), bias=False) (1): BatchNorm2d(480, eps=1e-05, momentum=0.1, affine=True, track_running_stats=True) (2): SiLU(inplace=True) ) (1): ConvNormActivation( (0): Conv2d(480, 480, kernel_size=(3, 3), stride=(1, 1), padding=(1, 1), groups=480, bias=False) (1): BatchNorm2d(480, eps=1e-05, momentum=0.1, affine=True, track_running_stats=True) (2): SiLU(inplace=True) ) (2): SqueezeExcitation( (avgpool): AdaptiveAvgPool2d(output_size=1) (fc1): Conv2d(480, 20, kernel_size=(1, 1), stride=(1, 1)) (fc2): Conv2d(20, 480, kernel_size=(1, 1), stride=(1, 1)) (activation): SiLU(inplace=True) (scale_activation): Sigmoid() ) (3): ConvNormActivation( (0): Conv2d(480, 80, kernel_size=(1, 1), stride=(1, 1), bias=False) (1): BatchNorm2d(80, eps=1e-05, momentum=0.1, affine=True, track_running_stats=True) ) ) (stochastic_depth): StochasticDepth(p=0.07500000000000001, mode=row) ) (2): MBConv( (block): Sequential( (0): ConvNormActivation( (0): Conv2d(80, 480, kernel_size=(1, 1), stride=(1, 1), bias=False) (1): BatchNorm2d(480, eps=1e-05, momentum=0.1, affine=True, track_running_stats=True) (2): SiLU(inplace=True) ) (1): ConvNormActivation( (0): Conv2d(480, 480, kernel_size=(3, 3), stride=(1, 1), padding=(1, 1), groups=480, bias=False) (1): BatchNorm2d(480, eps=1e-05, momentum=0.1, affine=True, track_running_stats=True) (2): SiLU(inplace=True) ) (2): SqueezeExcitation( (avgpool): AdaptiveAvgPool2d(output_size=1) (fc1): Conv2d(480, 20, kernel_size=(1, 1), stride=(1, 1)) (fc2): Conv2d(20, 480, kernel_size=(1, 1), stride=(1, 1)) (activation): SiLU(inplace=True) (scale_activation): Sigmoid() ) (3): ConvNormActivation( (0): Conv2d(480, 80, kernel_size=(1, 1), stride=(1, 1), bias=False) (1): BatchNorm2d(80, eps=1e-05, momentum=0.1, affine=True, track_running_stats=True) ) ) (stochastic_depth): StochasticDepth(p=0.08750000000000001, mode=row) ) ) (5): Sequential( (0): MBConv( (block): Sequential( (0): ConvNormActivation( (0): Conv2d(80, 480, kernel_size=(1, 1), stride=(1, 1), bias=False) (1): BatchNorm2d(480, eps=1e-05, momentum=0.1, affine=True, track_running_stats=True) (2): SiLU(inplace=True) ) (1): ConvNormActivation( (0): Conv2d(480, 480, kernel_size=(5, 5), stride=(1, 1), padding=(2, 2), groups=480, bias=False) (1): BatchNorm2d(480, eps=1e-05, momentum=0.1, affine=True, track_running_stats=True) (2): SiLU(inplace=True) ) (2): SqueezeExcitation( (avgpool): AdaptiveAvgPool2d(output_size=1) (fc1): Conv2d(480, 20, kernel_size=(1, 1), stride=(1, 1)) (fc2): Conv2d(20, 480, kernel_size=(1, 1), stride=(1, 1)) (activation): SiLU(inplace=True) (scale_activation): Sigmoid() ) (3): ConvNormActivation( (0): Conv2d(480, 112, kernel_size=(1, 1), stride=(1, 1), bias=False) (1): BatchNorm2d(112, eps=1e-05, momentum=0.1, affine=True, track_running_stats=True) ) ) (stochastic_depth): StochasticDepth(p=0.1, mode=row) ) (1): MBConv( (block): Sequential( (0): ConvNormActivation( (0): Conv2d(112, 672, kernel_size=(1, 1), stride=(1, 1), bias=False) (1): BatchNorm2d(672, eps=1e-05, momentum=0.1, affine=True, track_running_stats=True) (2): SiLU(inplace=True) ) (1): ConvNormActivation( (0): Conv2d(672, 672, kernel_size=(5, 5), stride=(1, 1), padding=(2, 2), groups=672, bias=False) (1): BatchNorm2d(672, eps=1e-05, momentum=0.1, affine=True, track_running_stats=True) (2): SiLU(inplace=True) ) (2): SqueezeExcitation( (avgpool): AdaptiveAvgPool2d(output_size=1) (fc1): Conv2d(672, 28, kernel_size=(1, 1), stride=(1, 1)) (fc2): Conv2d(28, 672, kernel_size=(1, 1), stride=(1, 1)) (activation): SiLU(inplace=True) (scale_activation): Sigmoid() ) (3): ConvNormActivation( (0): Conv2d(672, 112, kernel_size=(1, 1), stride=(1, 1), bias=False) (1): BatchNorm2d(112, eps=1e-05, momentum=0.1, affine=True, track_running_stats=True) ) ) (stochastic_depth): StochasticDepth(p=0.1125, mode=row) ) (2): MBConv( (block): Sequential( (0): ConvNormActivation( (0): Conv2d(112, 672, kernel_size=(1, 1), stride=(1, 1), bias=False) (1): BatchNorm2d(672, eps=1e-05, momentum=0.1, affine=True, track_running_stats=True) (2): SiLU(inplace=True) ) (1): ConvNormActivation( (0): Conv2d(672, 672, kernel_size=(5, 5), stride=(1, 1), padding=(2, 2), groups=672, bias=False) (1): BatchNorm2d(672, eps=1e-05, momentum=0.1, affine=True, track_running_stats=True) (2): SiLU(inplace=True) ) (2): SqueezeExcitation( (avgpool): AdaptiveAvgPool2d(output_size=1) (fc1): Conv2d(672, 28, kernel_size=(1, 1), stride=(1, 1)) (fc2): Conv2d(28, 672, kernel_size=(1, 1), stride=(1, 1)) (activation): SiLU(inplace=True) (scale_activation): Sigmoid() ) (3): ConvNormActivation( (0): Conv2d(672, 112, kernel_size=(1, 1), stride=(1, 1), bias=False) (1): BatchNorm2d(112, eps=1e-05, momentum=0.1, affine=True, track_running_stats=True) ) ) (stochastic_depth): StochasticDepth(p=0.125, mode=row) ) ) (6): Sequential( (0): MBConv( (block): Sequential( (0): ConvNormActivation( (0): Conv2d(112, 672, kernel_size=(1, 1), stride=(1, 1), bias=False) (1): BatchNorm2d(672, eps=1e-05, momentum=0.1, affine=True, track_running_stats=True) (2): SiLU(inplace=True) ) (1): ConvNormActivation( (0): Conv2d(672, 672, kernel_size=(5, 5), stride=(2, 2), padding=(2, 2), groups=672, bias=False) (1): BatchNorm2d(672, eps=1e-05, momentum=0.1, affine=True, track_running_stats=True) (2): SiLU(inplace=True) ) (2): SqueezeExcitation( (avgpool): AdaptiveAvgPool2d(output_size=1) (fc1): Conv2d(672, 28, kernel_size=(1, 1), stride=(1, 1)) (fc2): Conv2d(28, 672, kernel_size=(1, 1), stride=(1, 1)) (activation): SiLU(inplace=True) (scale_activation): Sigmoid() ) (3): ConvNormActivation( (0): Conv2d(672, 192, kernel_size=(1, 1), stride=(1, 1), bias=False) (1): BatchNorm2d(192, eps=1e-05, momentum=0.1, affine=True, track_running_stats=True) ) ) (stochastic_depth): StochasticDepth(p=0.1375, mode=row) ) (1): MBConv( (block): Sequential( (0): ConvNormActivation( (0): Conv2d(192, 1152, kernel_size=(1, 1), stride=(1, 1), bias=False) (1): BatchNorm2d(1152, eps=1e-05, momentum=0.1, affine=True, track_running_stats=True) (2): SiLU(inplace=True) ) (1): ConvNormActivation( (0): Conv2d(1152, 1152, kernel_size=(5, 5), stride=(1, 1), padding=(2, 2), groups=1152, bias=False) (1): BatchNorm2d(1152, eps=1e-05, momentum=0.1, affine=True, track_running_stats=True) (2): SiLU(inplace=True) ) (2): SqueezeExcitation( (avgpool): AdaptiveAvgPool2d(output_size=1) (fc1): Conv2d(1152, 48, kernel_size=(1, 1), stride=(1, 1)) (fc2): Conv2d(48, 1152, kernel_size=(1, 1), stride=(1, 1)) (activation): SiLU(inplace=True) (scale_activation): Sigmoid() ) (3): ConvNormActivation( (0): Conv2d(1152, 192, kernel_size=(1, 1), stride=(1, 1), bias=False) (1): BatchNorm2d(192, eps=1e-05, momentum=0.1, affine=True, track_running_stats=True) ) ) (stochastic_depth): StochasticDepth(p=0.15000000000000002, mode=row) ) (2): MBConv( (block): Sequential( (0): ConvNormActivation( (0): Conv2d(192, 1152, kernel_size=(1, 1), stride=(1, 1), bias=False) (1): BatchNorm2d(1152, eps=1e-05, momentum=0.1, affine=True, track_running_stats=True) (2): SiLU(inplace=True) ) (1): ConvNormActivation( (0): Conv2d(1152, 1152, kernel_size=(5, 5), stride=(1, 1), padding=(2, 2), groups=1152, bias=False) (1): BatchNorm2d(1152, eps=1e-05, momentum=0.1, affine=True, track_running_stats=True) (2): SiLU(inplace=True) ) (2): SqueezeExcitation( (avgpool): AdaptiveAvgPool2d(output_size=1) (fc1): Conv2d(1152, 48, kernel_size=(1, 1), stride=(1, 1)) (fc2): Conv2d(48, 1152, kernel_size=(1, 1), stride=(1, 1)) (activation): SiLU(inplace=True) (scale_activation): Sigmoid() ) (3): ConvNormActivation( (0): Conv2d(1152, 192, kernel_size=(1, 1), stride=(1, 1), bias=False) (1): BatchNorm2d(192, eps=1e-05, momentum=0.1, affine=True, track_running_stats=True) ) ) (stochastic_depth): StochasticDepth(p=0.1625, mode=row) ) (3): MBConv( (block): Sequential( (0): ConvNormActivation( (0): Conv2d(192, 1152, kernel_size=(1, 1), stride=(1, 1), bias=False) (1): BatchNorm2d(1152, eps=1e-05, momentum=0.1, affine=True, track_running_stats=True) (2): SiLU(inplace=True) ) (1): ConvNormActivation( (0): Conv2d(1152, 1152, kernel_size=(5, 5), stride=(1, 1), padding=(2, 2), groups=1152, bias=False) (1): BatchNorm2d(1152, eps=1e-05, momentum=0.1, affine=True, track_running_stats=True) (2): SiLU(inplace=True) ) (2): SqueezeExcitation( (avgpool): AdaptiveAvgPool2d(output_size=1) (fc1): Conv2d(1152, 48, kernel_size=(1, 1), stride=(1, 1)) (fc2): Conv2d(48, 1152, kernel_size=(1, 1), stride=(1, 1)) (activation): SiLU(inplace=True) (scale_activation): Sigmoid() ) (3): ConvNormActivation( (0): Conv2d(1152, 192, kernel_size=(1, 1), stride=(1, 1), bias=False) (1): BatchNorm2d(192, eps=1e-05, momentum=0.1, affine=True, track_running_stats=True) ) ) (stochastic_depth): StochasticDepth(p=0.17500000000000002, mode=row) ) ) (7): Sequential( (0): MBConv( (block): Sequential( (0): ConvNormActivation( (0): Conv2d(192, 1152, kernel_size=(1, 1), stride=(1, 1), bias=False) (1): BatchNorm2d(1152, eps=1e-05, momentum=0.1, affine=True, track_running_stats=True) (2): SiLU(inplace=True) ) (1): ConvNormActivation( (0): Conv2d(1152, 1152, kernel_size=(3, 3), stride=(1, 1), padding=(1, 1), groups=1152, bias=False) (1): BatchNorm2d(1152, eps=1e-05, momentum=0.1, affine=True, track_running_stats=True) (2): SiLU(inplace=True) ) (2): SqueezeExcitation( (avgpool): AdaptiveAvgPool2d(output_size=1) (fc1): Conv2d(1152, 48, kernel_size=(1, 1), stride=(1, 1)) (fc2): Conv2d(48, 1152, kernel_size=(1, 1), stride=(1, 1)) (activation): SiLU(inplace=True) (scale_activation): Sigmoid() ) (3): ConvNormActivation( (0): Conv2d(1152, 320, kernel_size=(1, 1), stride=(1, 1), bias=False) (1): BatchNorm2d(320, eps=1e-05, momentum=0.1, affine=True, track_running_stats=True) ) ) (stochastic_depth): StochasticDepth(p=0.1875, mode=row) ) ) (8): ConvNormActivation( (0): Conv2d(320, 1280, kernel_size=(1, 1), stride=(1, 1), bias=False) (1): BatchNorm2d(1280, eps=1e-05, momentum=0.1, affine=True, track_running_stats=True) (2): SiLU(inplace=True) ) ), AdaptiveAvgPool2d(output_size=1), Sequential( (0): Dropout(p=0.2, inplace=True) (1): Linear(in_features=1280, out_features=1000, bias=True) )] . As it can be seen, the pooling layer is at index -2, which corresponds to the cut value. We&#39;ll use the default_split for split function and ImageNet stats as the model is pre-trained on it. . from fastai.vision.learner import default_split model_meta[efficientnet_b0] = {&#39;cut&#39;: -2, &#39;split&#39;: default_split, &#39;stats&#39;: imagenet_stats} . Now we can create a cnn_learner since our custom architecture is registered. . path = untar_data(URLs.PETS) files = get_image_files(path/&quot;images&quot;) def label_func(f): return f[0].isupper() dls = ImageDataLoaders.from_name_func(path, files, label_func, item_tfms=Resize(224)) learn = cnn_learner(dls, arch=efficientnet_b0) . Let&#39;s verify that the body and head are created correctly. . Body: . list(learn.model.children())[:-1] . [Sequential( (0): Sequential( (0): ConvNormActivation( (0): Conv2d(3, 32, kernel_size=(3, 3), stride=(2, 2), padding=(1, 1), bias=False) (1): BatchNorm2d(32, eps=1e-05, momentum=0.1, affine=True, track_running_stats=True) (2): SiLU(inplace=True) ) (1): Sequential( (0): MBConv( (block): Sequential( (0): ConvNormActivation( (0): Conv2d(32, 32, kernel_size=(3, 3), stride=(1, 1), padding=(1, 1), groups=32, bias=False) (1): BatchNorm2d(32, eps=1e-05, momentum=0.1, affine=True, track_running_stats=True) (2): SiLU(inplace=True) ) (1): SqueezeExcitation( (avgpool): AdaptiveAvgPool2d(output_size=1) (fc1): Conv2d(32, 8, kernel_size=(1, 1), stride=(1, 1)) (fc2): Conv2d(8, 32, kernel_size=(1, 1), stride=(1, 1)) (activation): SiLU(inplace=True) (scale_activation): Sigmoid() ) (2): ConvNormActivation( (0): Conv2d(32, 16, kernel_size=(1, 1), stride=(1, 1), bias=False) (1): BatchNorm2d(16, eps=1e-05, momentum=0.1, affine=True, track_running_stats=True) ) ) (stochastic_depth): StochasticDepth(p=0.0, mode=row) ) ) (2): Sequential( (0): MBConv( (block): Sequential( (0): ConvNormActivation( (0): Conv2d(16, 96, kernel_size=(1, 1), stride=(1, 1), bias=False) (1): BatchNorm2d(96, eps=1e-05, momentum=0.1, affine=True, track_running_stats=True) (2): SiLU(inplace=True) ) (1): ConvNormActivation( (0): Conv2d(96, 96, kernel_size=(3, 3), stride=(2, 2), padding=(1, 1), groups=96, bias=False) (1): BatchNorm2d(96, eps=1e-05, momentum=0.1, affine=True, track_running_stats=True) (2): SiLU(inplace=True) ) (2): SqueezeExcitation( (avgpool): AdaptiveAvgPool2d(output_size=1) (fc1): Conv2d(96, 4, kernel_size=(1, 1), stride=(1, 1)) (fc2): Conv2d(4, 96, kernel_size=(1, 1), stride=(1, 1)) (activation): SiLU(inplace=True) (scale_activation): Sigmoid() ) (3): ConvNormActivation( (0): Conv2d(96, 24, kernel_size=(1, 1), stride=(1, 1), bias=False) (1): BatchNorm2d(24, eps=1e-05, momentum=0.1, affine=True, track_running_stats=True) ) ) (stochastic_depth): StochasticDepth(p=0.0125, mode=row) ) (1): MBConv( (block): Sequential( (0): ConvNormActivation( (0): Conv2d(24, 144, kernel_size=(1, 1), stride=(1, 1), bias=False) (1): BatchNorm2d(144, eps=1e-05, momentum=0.1, affine=True, track_running_stats=True) (2): SiLU(inplace=True) ) (1): ConvNormActivation( (0): Conv2d(144, 144, kernel_size=(3, 3), stride=(1, 1), padding=(1, 1), groups=144, bias=False) (1): BatchNorm2d(144, eps=1e-05, momentum=0.1, affine=True, track_running_stats=True) (2): SiLU(inplace=True) ) (2): SqueezeExcitation( (avgpool): AdaptiveAvgPool2d(output_size=1) (fc1): Conv2d(144, 6, kernel_size=(1, 1), stride=(1, 1)) (fc2): Conv2d(6, 144, kernel_size=(1, 1), stride=(1, 1)) (activation): SiLU(inplace=True) (scale_activation): Sigmoid() ) (3): ConvNormActivation( (0): Conv2d(144, 24, kernel_size=(1, 1), stride=(1, 1), bias=False) (1): BatchNorm2d(24, eps=1e-05, momentum=0.1, affine=True, track_running_stats=True) ) ) (stochastic_depth): StochasticDepth(p=0.025, mode=row) ) ) (3): Sequential( (0): MBConv( (block): Sequential( (0): ConvNormActivation( (0): Conv2d(24, 144, kernel_size=(1, 1), stride=(1, 1), bias=False) (1): BatchNorm2d(144, eps=1e-05, momentum=0.1, affine=True, track_running_stats=True) (2): SiLU(inplace=True) ) (1): ConvNormActivation( (0): Conv2d(144, 144, kernel_size=(5, 5), stride=(2, 2), padding=(2, 2), groups=144, bias=False) (1): BatchNorm2d(144, eps=1e-05, momentum=0.1, affine=True, track_running_stats=True) (2): SiLU(inplace=True) ) (2): SqueezeExcitation( (avgpool): AdaptiveAvgPool2d(output_size=1) (fc1): Conv2d(144, 6, kernel_size=(1, 1), stride=(1, 1)) (fc2): Conv2d(6, 144, kernel_size=(1, 1), stride=(1, 1)) (activation): SiLU(inplace=True) (scale_activation): Sigmoid() ) (3): ConvNormActivation( (0): Conv2d(144, 40, kernel_size=(1, 1), stride=(1, 1), bias=False) (1): BatchNorm2d(40, eps=1e-05, momentum=0.1, affine=True, track_running_stats=True) ) ) (stochastic_depth): StochasticDepth(p=0.037500000000000006, mode=row) ) (1): MBConv( (block): Sequential( (0): ConvNormActivation( (0): Conv2d(40, 240, kernel_size=(1, 1), stride=(1, 1), bias=False) (1): BatchNorm2d(240, eps=1e-05, momentum=0.1, affine=True, track_running_stats=True) (2): SiLU(inplace=True) ) (1): ConvNormActivation( (0): Conv2d(240, 240, kernel_size=(5, 5), stride=(1, 1), padding=(2, 2), groups=240, bias=False) (1): BatchNorm2d(240, eps=1e-05, momentum=0.1, affine=True, track_running_stats=True) (2): SiLU(inplace=True) ) (2): SqueezeExcitation( (avgpool): AdaptiveAvgPool2d(output_size=1) (fc1): Conv2d(240, 10, kernel_size=(1, 1), stride=(1, 1)) (fc2): Conv2d(10, 240, kernel_size=(1, 1), stride=(1, 1)) (activation): SiLU(inplace=True) (scale_activation): Sigmoid() ) (3): ConvNormActivation( (0): Conv2d(240, 40, kernel_size=(1, 1), stride=(1, 1), bias=False) (1): BatchNorm2d(40, eps=1e-05, momentum=0.1, affine=True, track_running_stats=True) ) ) (stochastic_depth): StochasticDepth(p=0.05, mode=row) ) ) (4): Sequential( (0): MBConv( (block): Sequential( (0): ConvNormActivation( (0): Conv2d(40, 240, kernel_size=(1, 1), stride=(1, 1), bias=False) (1): BatchNorm2d(240, eps=1e-05, momentum=0.1, affine=True, track_running_stats=True) (2): SiLU(inplace=True) ) (1): ConvNormActivation( (0): Conv2d(240, 240, kernel_size=(3, 3), stride=(2, 2), padding=(1, 1), groups=240, bias=False) (1): BatchNorm2d(240, eps=1e-05, momentum=0.1, affine=True, track_running_stats=True) (2): SiLU(inplace=True) ) (2): SqueezeExcitation( (avgpool): AdaptiveAvgPool2d(output_size=1) (fc1): Conv2d(240, 10, kernel_size=(1, 1), stride=(1, 1)) (fc2): Conv2d(10, 240, kernel_size=(1, 1), stride=(1, 1)) (activation): SiLU(inplace=True) (scale_activation): Sigmoid() ) (3): ConvNormActivation( (0): Conv2d(240, 80, kernel_size=(1, 1), stride=(1, 1), bias=False) (1): BatchNorm2d(80, eps=1e-05, momentum=0.1, affine=True, track_running_stats=True) ) ) (stochastic_depth): StochasticDepth(p=0.0625, mode=row) ) (1): MBConv( (block): Sequential( (0): ConvNormActivation( (0): Conv2d(80, 480, kernel_size=(1, 1), stride=(1, 1), bias=False) (1): BatchNorm2d(480, eps=1e-05, momentum=0.1, affine=True, track_running_stats=True) (2): SiLU(inplace=True) ) (1): ConvNormActivation( (0): Conv2d(480, 480, kernel_size=(3, 3), stride=(1, 1), padding=(1, 1), groups=480, bias=False) (1): BatchNorm2d(480, eps=1e-05, momentum=0.1, affine=True, track_running_stats=True) (2): SiLU(inplace=True) ) (2): SqueezeExcitation( (avgpool): AdaptiveAvgPool2d(output_size=1) (fc1): Conv2d(480, 20, kernel_size=(1, 1), stride=(1, 1)) (fc2): Conv2d(20, 480, kernel_size=(1, 1), stride=(1, 1)) (activation): SiLU(inplace=True) (scale_activation): Sigmoid() ) (3): ConvNormActivation( (0): Conv2d(480, 80, kernel_size=(1, 1), stride=(1, 1), bias=False) (1): BatchNorm2d(80, eps=1e-05, momentum=0.1, affine=True, track_running_stats=True) ) ) (stochastic_depth): StochasticDepth(p=0.07500000000000001, mode=row) ) (2): MBConv( (block): Sequential( (0): ConvNormActivation( (0): Conv2d(80, 480, kernel_size=(1, 1), stride=(1, 1), bias=False) (1): BatchNorm2d(480, eps=1e-05, momentum=0.1, affine=True, track_running_stats=True) (2): SiLU(inplace=True) ) (1): ConvNormActivation( (0): Conv2d(480, 480, kernel_size=(3, 3), stride=(1, 1), padding=(1, 1), groups=480, bias=False) (1): BatchNorm2d(480, eps=1e-05, momentum=0.1, affine=True, track_running_stats=True) (2): SiLU(inplace=True) ) (2): SqueezeExcitation( (avgpool): AdaptiveAvgPool2d(output_size=1) (fc1): Conv2d(480, 20, kernel_size=(1, 1), stride=(1, 1)) (fc2): Conv2d(20, 480, kernel_size=(1, 1), stride=(1, 1)) (activation): SiLU(inplace=True) (scale_activation): Sigmoid() ) (3): ConvNormActivation( (0): Conv2d(480, 80, kernel_size=(1, 1), stride=(1, 1), bias=False) (1): BatchNorm2d(80, eps=1e-05, momentum=0.1, affine=True, track_running_stats=True) ) ) (stochastic_depth): StochasticDepth(p=0.08750000000000001, mode=row) ) ) (5): Sequential( (0): MBConv( (block): Sequential( (0): ConvNormActivation( (0): Conv2d(80, 480, kernel_size=(1, 1), stride=(1, 1), bias=False) (1): BatchNorm2d(480, eps=1e-05, momentum=0.1, affine=True, track_running_stats=True) (2): SiLU(inplace=True) ) (1): ConvNormActivation( (0): Conv2d(480, 480, kernel_size=(5, 5), stride=(1, 1), padding=(2, 2), groups=480, bias=False) (1): BatchNorm2d(480, eps=1e-05, momentum=0.1, affine=True, track_running_stats=True) (2): SiLU(inplace=True) ) (2): SqueezeExcitation( (avgpool): AdaptiveAvgPool2d(output_size=1) (fc1): Conv2d(480, 20, kernel_size=(1, 1), stride=(1, 1)) (fc2): Conv2d(20, 480, kernel_size=(1, 1), stride=(1, 1)) (activation): SiLU(inplace=True) (scale_activation): Sigmoid() ) (3): ConvNormActivation( (0): Conv2d(480, 112, kernel_size=(1, 1), stride=(1, 1), bias=False) (1): BatchNorm2d(112, eps=1e-05, momentum=0.1, affine=True, track_running_stats=True) ) ) (stochastic_depth): StochasticDepth(p=0.1, mode=row) ) (1): MBConv( (block): Sequential( (0): ConvNormActivation( (0): Conv2d(112, 672, kernel_size=(1, 1), stride=(1, 1), bias=False) (1): BatchNorm2d(672, eps=1e-05, momentum=0.1, affine=True, track_running_stats=True) (2): SiLU(inplace=True) ) (1): ConvNormActivation( (0): Conv2d(672, 672, kernel_size=(5, 5), stride=(1, 1), padding=(2, 2), groups=672, bias=False) (1): BatchNorm2d(672, eps=1e-05, momentum=0.1, affine=True, track_running_stats=True) (2): SiLU(inplace=True) ) (2): SqueezeExcitation( (avgpool): AdaptiveAvgPool2d(output_size=1) (fc1): Conv2d(672, 28, kernel_size=(1, 1), stride=(1, 1)) (fc2): Conv2d(28, 672, kernel_size=(1, 1), stride=(1, 1)) (activation): SiLU(inplace=True) (scale_activation): Sigmoid() ) (3): ConvNormActivation( (0): Conv2d(672, 112, kernel_size=(1, 1), stride=(1, 1), bias=False) (1): BatchNorm2d(112, eps=1e-05, momentum=0.1, affine=True, track_running_stats=True) ) ) (stochastic_depth): StochasticDepth(p=0.1125, mode=row) ) (2): MBConv( (block): Sequential( (0): ConvNormActivation( (0): Conv2d(112, 672, kernel_size=(1, 1), stride=(1, 1), bias=False) (1): BatchNorm2d(672, eps=1e-05, momentum=0.1, affine=True, track_running_stats=True) (2): SiLU(inplace=True) ) (1): ConvNormActivation( (0): Conv2d(672, 672, kernel_size=(5, 5), stride=(1, 1), padding=(2, 2), groups=672, bias=False) (1): BatchNorm2d(672, eps=1e-05, momentum=0.1, affine=True, track_running_stats=True) (2): SiLU(inplace=True) ) (2): SqueezeExcitation( (avgpool): AdaptiveAvgPool2d(output_size=1) (fc1): Conv2d(672, 28, kernel_size=(1, 1), stride=(1, 1)) (fc2): Conv2d(28, 672, kernel_size=(1, 1), stride=(1, 1)) (activation): SiLU(inplace=True) (scale_activation): Sigmoid() ) (3): ConvNormActivation( (0): Conv2d(672, 112, kernel_size=(1, 1), stride=(1, 1), bias=False) (1): BatchNorm2d(112, eps=1e-05, momentum=0.1, affine=True, track_running_stats=True) ) ) (stochastic_depth): StochasticDepth(p=0.125, mode=row) ) ) (6): Sequential( (0): MBConv( (block): Sequential( (0): ConvNormActivation( (0): Conv2d(112, 672, kernel_size=(1, 1), stride=(1, 1), bias=False) (1): BatchNorm2d(672, eps=1e-05, momentum=0.1, affine=True, track_running_stats=True) (2): SiLU(inplace=True) ) (1): ConvNormActivation( (0): Conv2d(672, 672, kernel_size=(5, 5), stride=(2, 2), padding=(2, 2), groups=672, bias=False) (1): BatchNorm2d(672, eps=1e-05, momentum=0.1, affine=True, track_running_stats=True) (2): SiLU(inplace=True) ) (2): SqueezeExcitation( (avgpool): AdaptiveAvgPool2d(output_size=1) (fc1): Conv2d(672, 28, kernel_size=(1, 1), stride=(1, 1)) (fc2): Conv2d(28, 672, kernel_size=(1, 1), stride=(1, 1)) (activation): SiLU(inplace=True) (scale_activation): Sigmoid() ) (3): ConvNormActivation( (0): Conv2d(672, 192, kernel_size=(1, 1), stride=(1, 1), bias=False) (1): BatchNorm2d(192, eps=1e-05, momentum=0.1, affine=True, track_running_stats=True) ) ) (stochastic_depth): StochasticDepth(p=0.1375, mode=row) ) (1): MBConv( (block): Sequential( (0): ConvNormActivation( (0): Conv2d(192, 1152, kernel_size=(1, 1), stride=(1, 1), bias=False) (1): BatchNorm2d(1152, eps=1e-05, momentum=0.1, affine=True, track_running_stats=True) (2): SiLU(inplace=True) ) (1): ConvNormActivation( (0): Conv2d(1152, 1152, kernel_size=(5, 5), stride=(1, 1), padding=(2, 2), groups=1152, bias=False) (1): BatchNorm2d(1152, eps=1e-05, momentum=0.1, affine=True, track_running_stats=True) (2): SiLU(inplace=True) ) (2): SqueezeExcitation( (avgpool): AdaptiveAvgPool2d(output_size=1) (fc1): Conv2d(1152, 48, kernel_size=(1, 1), stride=(1, 1)) (fc2): Conv2d(48, 1152, kernel_size=(1, 1), stride=(1, 1)) (activation): SiLU(inplace=True) (scale_activation): Sigmoid() ) (3): ConvNormActivation( (0): Conv2d(1152, 192, kernel_size=(1, 1), stride=(1, 1), bias=False) (1): BatchNorm2d(192, eps=1e-05, momentum=0.1, affine=True, track_running_stats=True) ) ) (stochastic_depth): StochasticDepth(p=0.15000000000000002, mode=row) ) (2): MBConv( (block): Sequential( (0): ConvNormActivation( (0): Conv2d(192, 1152, kernel_size=(1, 1), stride=(1, 1), bias=False) (1): BatchNorm2d(1152, eps=1e-05, momentum=0.1, affine=True, track_running_stats=True) (2): SiLU(inplace=True) ) (1): ConvNormActivation( (0): Conv2d(1152, 1152, kernel_size=(5, 5), stride=(1, 1), padding=(2, 2), groups=1152, bias=False) (1): BatchNorm2d(1152, eps=1e-05, momentum=0.1, affine=True, track_running_stats=True) (2): SiLU(inplace=True) ) (2): SqueezeExcitation( (avgpool): AdaptiveAvgPool2d(output_size=1) (fc1): Conv2d(1152, 48, kernel_size=(1, 1), stride=(1, 1)) (fc2): Conv2d(48, 1152, kernel_size=(1, 1), stride=(1, 1)) (activation): SiLU(inplace=True) (scale_activation): Sigmoid() ) (3): ConvNormActivation( (0): Conv2d(1152, 192, kernel_size=(1, 1), stride=(1, 1), bias=False) (1): BatchNorm2d(192, eps=1e-05, momentum=0.1, affine=True, track_running_stats=True) ) ) (stochastic_depth): StochasticDepth(p=0.1625, mode=row) ) (3): MBConv( (block): Sequential( (0): ConvNormActivation( (0): Conv2d(192, 1152, kernel_size=(1, 1), stride=(1, 1), bias=False) (1): BatchNorm2d(1152, eps=1e-05, momentum=0.1, affine=True, track_running_stats=True) (2): SiLU(inplace=True) ) (1): ConvNormActivation( (0): Conv2d(1152, 1152, kernel_size=(5, 5), stride=(1, 1), padding=(2, 2), groups=1152, bias=False) (1): BatchNorm2d(1152, eps=1e-05, momentum=0.1, affine=True, track_running_stats=True) (2): SiLU(inplace=True) ) (2): SqueezeExcitation( (avgpool): AdaptiveAvgPool2d(output_size=1) (fc1): Conv2d(1152, 48, kernel_size=(1, 1), stride=(1, 1)) (fc2): Conv2d(48, 1152, kernel_size=(1, 1), stride=(1, 1)) (activation): SiLU(inplace=True) (scale_activation): Sigmoid() ) (3): ConvNormActivation( (0): Conv2d(1152, 192, kernel_size=(1, 1), stride=(1, 1), bias=False) (1): BatchNorm2d(192, eps=1e-05, momentum=0.1, affine=True, track_running_stats=True) ) ) (stochastic_depth): StochasticDepth(p=0.17500000000000002, mode=row) ) ) (7): Sequential( (0): MBConv( (block): Sequential( (0): ConvNormActivation( (0): Conv2d(192, 1152, kernel_size=(1, 1), stride=(1, 1), bias=False) (1): BatchNorm2d(1152, eps=1e-05, momentum=0.1, affine=True, track_running_stats=True) (2): SiLU(inplace=True) ) (1): ConvNormActivation( (0): Conv2d(1152, 1152, kernel_size=(3, 3), stride=(1, 1), padding=(1, 1), groups=1152, bias=False) (1): BatchNorm2d(1152, eps=1e-05, momentum=0.1, affine=True, track_running_stats=True) (2): SiLU(inplace=True) ) (2): SqueezeExcitation( (avgpool): AdaptiveAvgPool2d(output_size=1) (fc1): Conv2d(1152, 48, kernel_size=(1, 1), stride=(1, 1)) (fc2): Conv2d(48, 1152, kernel_size=(1, 1), stride=(1, 1)) (activation): SiLU(inplace=True) (scale_activation): Sigmoid() ) (3): ConvNormActivation( (0): Conv2d(1152, 320, kernel_size=(1, 1), stride=(1, 1), bias=False) (1): BatchNorm2d(320, eps=1e-05, momentum=0.1, affine=True, track_running_stats=True) ) ) (stochastic_depth): StochasticDepth(p=0.1875, mode=row) ) ) (8): ConvNormActivation( (0): Conv2d(320, 1280, kernel_size=(1, 1), stride=(1, 1), bias=False) (1): BatchNorm2d(1280, eps=1e-05, momentum=0.1, affine=True, track_running_stats=True) (2): SiLU(inplace=True) ) ) )] . Head: . list(learn.model.children())[-1] . Sequential( (0): AdaptiveConcatPool2d( (ap): AdaptiveAvgPool2d(output_size=1) (mp): AdaptiveMaxPool2d(output_size=1) ) (1): Flatten(full=False) (2): BatchNorm1d(2560, eps=1e-05, momentum=0.1, affine=True, track_running_stats=True) (3): Dropout(p=0.25, inplace=False) (4): Linear(in_features=2560, out_features=512, bias=False) (5): ReLU(inplace=True) (6): BatchNorm1d(512, eps=1e-05, momentum=0.1, affine=True, track_running_stats=True) (7): Dropout(p=0.5, inplace=False) (8): Linear(in_features=512, out_features=2, bias=False) ) . As it&#39;s seen, cnn_learner created a new head starting with a pooling layer while keeping the backbone from the pre-trained model. . m.children? . Signature: m.children() -&gt; Iterator[ForwardRef(&#39;Module&#39;)] Docstring: Returns an iterator over immediate children modules. Yields: Module: a child module File: ~/miniconda3/envs/fastnote/lib/python3.8/site-packages/torch/nn/modules/module.py Type: method .",
…
