…
&lt;div class=&quot;output_subarea output_stream output_stdout output_text&quot;&gt;
&lt;pre&gt;There are 10 children modules of network
&lt;/pre&gt;
&lt;/div&gt;
&lt;/div&gt;

&lt;div class=&quot;output_area&quot;&gt;



&lt;div class=&quot;output_text output_subarea output_execute_result&quot;&gt;
&lt;pre&gt;[Conv2d(3, 64, kernel_size=(7, 7), stride=(2, 2), padding=(3, 3), bias=False),
 BatchNorm2d(64, eps=1e-05, momentum=0.1, affine=True, track_running_stats=True),
 ReLU(inplace=True),
 MaxPool2d(kernel_size=3, stride=2, padding=1, dilation=1, ceil_mode=False),
 Sequential(
   (0): BasicBlock(
     (conv1): Conv2d(64, 64, kernel_size=(3, 3), stride=(1, 1), padding=(1, 1), bias=False)
     (bn1): BatchNorm2d(64, eps=1e-05, momentum=0.1, affine=True, track_running_stats=True)
     (relu): ReLU(inplace=True)
     (conv2): Conv2d(64, 64, kernel_size=(3, 3), stride=(1, 1), padding=(1, 1), bias=False)
     (bn2): BatchNorm2d(64, eps=1e-05, momentum=0.1, affine=True, track_running_stats=True)
   )
   (1): BasicBlock(
     (conv1): Conv2d(64, 64, kernel_size=(3, 3), stride=(1, 1), padding=(1, 1), bias=False)
     (bn1): BatchNorm2d(64, eps=1e-05, momentum=0.1, affine=True, track_running_stats=True)
     (relu): ReLU(inplace=True)
     (conv2): Conv2d(64, 64, kernel_size=(3, 3), stride=(1, 1), padding=(1, 1), bias=False)
     (bn2): BatchNorm2d(64, eps=1e-05, momentum=0.1, affine=True, track_running_stats=True)
   )
 ),
 Sequential(
   (0): BasicBlock(
     (conv1): Conv2d(64, 128, kernel_size=(3, 3), stride=(2, 2), padding=(1, 1), bias=False)
     (bn1): BatchNorm2d(128, eps=1e-05, momentum=0.1, affine=True, track_running_stats=True)
     (relu): ReLU(inplace=True)
     (conv2): Conv2d(128, 128, kernel_size=(3, 3), stride=(1, 1), padding=(1, 1), bias=False)
     (bn2): BatchNorm2d(128, eps=1e-05, momentum=0.1, affine=True, track_running_stats=True)
     (downsample): Sequential(
       (0): Conv2d(64, 128, kernel_size=(1, 1), stride=(2, 2), bias=False)
       (1): BatchNorm2d(128, eps=1e-05, momentum=0.1, affine=True, track_running_stats=True)
     )
   )
   (1): BasicBlock(
     (conv1): Conv2d(128, 128, kernel_size=(3, 3), stride=(1, 1), padding=(1, 1), bias=False)
     (bn1): BatchNorm2d(128, eps=1e-05, momentum=0.1, affine=True, track_running_stats=True)
     (relu): ReLU(inplace=True)
     (conv2): Conv2d(128, 128, kernel_size=(3, 3), stride=(1, 1), padding=(1, 1), bias=False)
     (bn2): BatchNorm2d(128, eps=1e-05, momentum=0.1, affine=True, track_running_stats=True)
   )
 ),
 Sequential(
   (0): BasicBlock(
     (conv1): Conv2d(128, 256, kernel_size=(3, 3), stride=(2, 2), padding=(1, 1), bias=False)
     (bn1): BatchNorm2d(256, eps=1e-05, momentum=0.1, affine=True, track_running_stats=True)
     (relu): ReLU(inplace=True)
     (conv2): Conv2d(256, 256, kernel_size=(3, 3), stride=(1, 1), padding=(1, 1), bias=False)
     (bn2): BatchNorm2d(256, eps=1e-05, momentum=0.1, affine=True, track_running_stats=True)
     (downsample): Sequential(
       (0): Conv2d(128, 256, kernel_size=(1, 1), stride=(2, 2), bias=False)
       (1): BatchNorm2d(256, eps=1e-05, momentum=0.1, affine=True, track_running_stats=True)
     )
   )
   (1): BasicBlock(
     (conv1): Conv2d(256, 256, kernel_size=(3, 3), stride=(1, 1), padding=(1, 1), bias=False)
     (bn1): BatchNorm2d(256, eps=1e-05, momentum=0.1, affine=True, track_running_stats=True)
     (relu): ReLU(inplace=True)
     (conv2): Conv2d(256, 256, kernel_size=(3, 3), stride=(1, 1), padding=(1, 1), bias=False)
     (bn2): BatchNorm2d(256, eps=1e-05, momentum=0.1, affine=True, track_running_stats=True)
   )
 ),
 Sequential(
   (0): BasicBlock(
     (conv1): Conv2d(256, 512, kernel_size=(3, 3), stride=(2, 2), padding=(1, 1), bias=False)
     (bn1): BatchNorm2d(512, eps=1e-05, momentum=0.1, affine=True, track_running_stats=True)
     (relu): ReLU(inplace=True)
     (conv2): Conv2d(512, 512, kernel_size=(3, 3), stride=(1, 1), padding=(1, 1), bias=False)
     (bn2): BatchNorm2d(512, eps=1e-05, momentum=0.1, affine=True, track_running_stats=True)
     (downsample): Sequential(
       (0): Conv2d(256, 512, kernel_size=(1, 1), stride=(2, 2), bias=False)
       (1): BatchNorm2d(512, eps=1e-05, momentum=0.1, affine=True, track_running_stats=True)
     )
   )
   (1): BasicBlock(
     (conv1): Conv2d(512, 512, kernel_size=(3, 3), stride=(1, 1), padding=(1, 1), bias=False)
     (bn1): BatchNorm2d(512, eps=1e-05, momentum=0.1, affine=True, track_running_stats=True)
     (relu): ReLU(inplace=True)
     (conv2): Conv2d(512, 512, kernel_size=(3, 3), stride=(1, 1), padding=(1, 1), bias=False)
     (bn2): BatchNorm2d(512, eps=1e-05, momentum=0.1, affine=True, track_running_stats=True)
   )
 ),
 AdaptiveAvgPool2d(output_size=(1, 1)),
 Linear(in_features=512, out_features=1000, bias=True)]&lt;/pre&gt;
&lt;/div&gt;

&lt;/div&gt;

&lt;/div&gt;
&lt;/div&gt;

&lt;/div&gt;
    

&lt;div class=&quot;cell border-box-sizing text_cell rendered&quot;&gt;&lt;div class=&quot;inner_cell&quot;&gt;
&lt;div class=&quot;text_cell_render border-box-sizing rendered_html&quot;&gt;
…
&quot;p&quot;&gt;[&lt;/span&gt;&lt;span class=&quot;n&quot;&gt;resnet18&lt;/span&gt;&lt;span class=&quot;p&quot;&gt;][&lt;/span&gt;&lt;span class=&quot;s1&quot;&gt;&amp;#39;cut&amp;#39;&lt;/span&gt;&lt;span class=&quot;p&quot;&gt;])&lt;/span&gt;
&lt;span class=&quot;n&quot;&gt;body&lt;/span&gt;
&lt;/pre&gt;&lt;/div&gt;

    &lt;/div&gt;
&lt;/div&gt;
&lt;/div&gt;

&lt;div class=&quot;output_wrapper&quot;&gt;
&lt;div class=&quot;output&quot;&gt;

&lt;div class=&quot;output_area&quot;&gt;



&lt;div class=&quot;output_text output_subarea output_execute_result&quot;&gt;
&lt;pre&gt;Sequential(
  (0): Conv2d(3, 64, kernel_size=(7, 7), stride=(2, 2), padding=(3, 3), bias=False)
  (1): BatchNorm2d(64, eps=1e-05, momentum=0.1, affine=True, track_running_stats=True)
  (2): ReLU(inplace=True)
  (3): MaxPool2d(kernel_size=3, stride=2, padding=1, dilation=1, ceil_mode=False)
  (4): Sequential(
    (0): BasicBlock(
      (conv1): Conv2d(64, 64, kernel_size=(3, 3), stride=(1, 1), padding=(1, 1), bias=False)
      (bn1): BatchNorm2d(64, eps=1e-05, momentum=0.1, affine=True, track_running_stats=True)
      (relu): ReLU(inplace=True)
      (conv2): Conv2d(64, 64, kernel_size=(3, 3), stride=(1, 1), padding=(1, 1), bias=False)
      (bn2): BatchNorm2d(64, eps=1e-05, momentum=0.1, affine=True, track_running_stats=True)
    )
    (1): BasicBlock(
      (conv1): Conv2d(64, 64, kernel_size=(3, 3), stride=(1, 1), padding=(1, 1), bias=False)
      (bn1): BatchNorm2d(64, eps=1e-05, momentum=0.1, affine=True, track_running_stats=True)
      (relu): ReLU(inplace=True)
      (conv2): Conv2d(64, 64, kernel_size=(3, 3), stride=(1, 1), padding=(1, 1), bias=False)
      (bn2): BatchNorm2d(64, eps=1e-05, momentum=0.1, affine=True, track_running_stats=True)
    )
  )
  (5): Sequential(
    (0): BasicBlock(
      (conv1): Conv2d(64, 128, kernel_size=(3, 3), stride=(2, 2), padding=(1, 1), bias=False)
      (bn1): BatchNorm2d(128, eps=1e-05, momentum=0.1, affine=True, track_running_stats=True)
      (relu): ReLU(inplace=True)
      (conv2): Conv2d(128, 128, kernel_size=(3, 3), stride=(1, 1), padding=(1, 1), bias=False)
      (bn2): BatchNorm2d(128, eps=1e-05, momentum=0.1, affine=True, track_running_stats=True)
      (downsample): Sequential(
        (0): Conv2d(64, 128, kernel_size=(1, 1), stride=(2, 2), bias=False)
        (1): BatchNorm2d(128, eps=1e-05, momentum=0.1, affine=True, track_running_stats=True)
      )
    )
    (1): BasicBlock(
      (conv1): Conv2d(128, 128, kernel_size=(3, 3), stride=(1, 1), padding=(1, 1), bias=False)
      (bn1): BatchNorm2d(128, eps=1e-05, momentum=0.1, affine=True, track_running_stats=True)
      (relu): ReLU(inplace=True)
      (conv2): Conv2d(128, 128, kernel_size=(3, 3), stride=(1, 1), padding=(1, 1), bias=False)
      (bn2): BatchNorm2d(128, eps=1e-05, momentum=0.1, affine=True, track_running_stats=True)
    )
  )
  (6): Sequential(
    (0): BasicBlock(
      (conv1): Conv2d(128, 256, kernel_size=(3, 3), stride=(2, 2), padding=(1, 1), bias=False)
      (bn1): BatchNorm2d(256, eps=1e-05, momentum=0.1, affine=True, track_running_stats=True)
      (relu): ReLU(inplace=True)
      (conv2): Conv2d(256, 256, kernel_size=(3, 3), stride=(1, 1), padding=(1, 1), bias=False)
      (bn2): BatchNorm2d(256, eps=1e-05, momentum=0.1, affine=True, track_running_stats=True)
      (downsample): Sequential(
        (0): Conv2d(128, 256, kernel_size=(1, 1), stride=(2, 2), bias=False)
        (1): BatchNorm2d(256, eps=1e-05, momentum=0.1, affine=True, track_running_stats=True)
      )
    )
    (1): BasicBlock(
      (conv1): Conv2d(256, 256, kernel_size=(3, 3), stride=(1, 1), padding=(1, 1), bias=False)
      (bn1): BatchNorm2d(256, eps=1e-05, momentum=0.1, affine=True, track_running_stats=True)
      (relu): ReLU(inplace=True)
      (conv2): Conv2d(256, 256, kernel_size=(3, 3), stride=(1, 1), padding=(1, 1), bias=False)
      (bn2): BatchNorm2d(256, eps=1e-05, momentum=0.1, affine=True, track_running_stats=True)
    )
  )
  (7): Sequential(
    (0): BasicBlock(
      (conv1): Conv2d(256, 512, kernel_size=(3, 3), stride=(2, 2), padding=(1, 1), bias=False)
      (bn1): BatchNorm2d(512, eps=1e-05, momentum=0.1, affine=True, track_running_stats=True)
      (relu): ReLU(inplace=True)
      (conv2): Conv2d(512, 512, kernel_size=(3, 3), stride=(1, 1), padding=(1, 1), bias=False)
      (bn2): BatchNorm2d(512, eps=1e-05, momentum=0.1, affine=True, track_running_stats=True)
      (downsample): Sequential(
        (0): Conv2d(256, 512, kernel_size=(1, 1), stride=(2, 2), bias=False)
        (1): BatchNorm2d(512, eps=1e-05, momentum=0.1, affine=True, track_running_stats=True)
      )
    )
    (1): BasicBlock(
      (conv1): Conv2d(512, 512, kernel_size=(3, 3), stride=(1, 1), padding=(1, 1), bias=False)
      (bn1): BatchNorm2d(512, eps=1e-05, momentum=0.1, affine=True, track_running_stats=True)
      (relu): ReLU(inplace=True)
      (conv2): Conv2d(512, 512, kernel_size=(3, 3), stride=(1, 1), padding=(1, 1), bias=False)
      (bn2): BatchNorm2d(512, eps=1e-05, momentum=0.1, affine=True, track_running_stats=True)
    )
  )
)&lt;/pre&gt;
&lt;/div&gt;

&lt;/div&gt;

&lt;/div&gt;
&lt;/div&gt;

&lt;/div&gt;
    

&lt;div class=&quot;cell border-box-sizing text_cell rendered&quot;&gt;&lt;div class=&quot;inner_cell&quot;&gt;
&lt;div class=&quot;text_cell_render border-box-sizing rendered_html&quot;&gt;
&lt;p&gt;Similarly, we need to determine the &lt;code&gt;cut&lt;/code&gt; index for the custom model we use. Let's do it with &lt;code&gt;EfficientNetB0&lt;/code&gt; network available in &lt;code&gt;torchvision&lt;/code&gt; library. First, we inspect the network layers to find out where to split it into backbone and head.&lt;/p&gt;
…
&lt;span class=&quot;n&quot;&gt;children&lt;/span&gt;
&lt;/pre&gt;&lt;/div&gt;

    &lt;/div&gt;
&lt;/div&gt;
&lt;/div&gt;

&lt;div class=&quot;output_wrapper&quot;&gt;
&lt;div class=&quot;output&quot;&gt;

&lt;div class=&quot;output_area&quot;&gt;

&lt;div class=&quot;output_subarea output_stream output_stdout output_text&quot;&gt;
&lt;pre&gt;There are 3 children modules of network
&lt;/pre&gt;
&lt;/div&gt;
&lt;/div&gt;

&lt;div class=&quot;output_area&quot;&gt;



&lt;div class=&quot;output_text output_subarea output_execute_result&quot;&gt;
&lt;pre&gt;[Sequential(
   (0): ConvNormActivation(
     (0): Conv2d(3, 32, kernel_size=(3, 3), stride=(2, 2), padding=(1, 1), bias=False)
     (1): BatchNorm2d(32, eps=1e-05, momentum=0.1, affine=True, track_running_stats=True)
     (2): SiLU(inplace=True)
   )
   (1): Sequential(
     (0): MBConv(
       (block): Sequential(
         (0): ConvNormActivation(
           (0): Conv2d(32, 32, kernel_size=(3, 3), stride=(1, 1), padding=(1, 1), groups=32, bias=False)
           (1): BatchNorm2d(32, eps=1e-05, momentum=0.1, affine=True, track_running_stats=True)
           (2): SiLU(inplace=True)
         )
         (1): SqueezeExcitation(
           (avgpool): AdaptiveAvgPool2d(output_size=1)
           (fc1): Conv2d(32, 8, kernel_size=(1, 1), stride=(1, 1))
           (fc2): Conv2d(8, 32, kernel_size=(1, 1), stride=(1, 1))
           (activation): SiLU(inplace=True)
           (scale_activation): Sigmoid()
         )
         (2): ConvNormActivation(
           (0): Conv2d(32, 16, kernel_size=(1, 1), stride=(1, 1), bias=False)
           (1): BatchNorm2d(16, eps=1e-05, momentum=0.1, affine=True, track_running_stats=True)
         )
       )
       (stochastic_depth): StochasticDepth(p=0.0, mode=row)
     )
   )
   (2): Sequential(
     (0): MBConv(
       (block): Sequential(
         (0): ConvNormActivation(
           (0): Conv2d(16, 96, kernel_size=(1, 1), stride=(1, 1), bias=False)
           (1): BatchNorm2d(96, eps=1e-05, momentum=0.1, affine=True, track_running_stats=True)
           (2): SiLU(inplace=True)
         )
         (1): ConvNormActivation(
           (0): Conv2d(96, 96, kernel_size=(3, 3), stride=(2, 2), padding=(1, 1), groups=96, bias=False)
           (1): BatchNorm2d(96, eps=1e-05, momentum=0.1, affine=True, track_running_stats=True)
           (2): SiLU(inplace=True)
         )
         (2): SqueezeExcitation(
           (avgpool): AdaptiveAvgPool2d(output_size=1)
           (fc1): Conv2d(96, 4, kernel_size=(1, 1), stride=(1, 1))
           (fc2): Conv2d(4, 96, kernel_size=(1, 1), stride=(1, 1))
           (activation): SiLU(inplace=True)
           (scale_activation): Sigmoid()
         )
         (3): ConvNormActivation(
           (0): Conv2d(96, 24, kernel_size=(1, 1), stride=(1, 1), bias=False)
           (1): BatchNorm2d(24, eps=1e-05, momentum=0.1, affine=True, track_running_stats=True)
         )
       )
       (stochastic_depth): StochasticDepth(p=0.0125, mode=row)
     )
     (1): MBConv(
       (block): Sequential(
         (0): ConvNormActivation(
           (0): Conv2d(24, 144, kernel_size=(1, 1), stride=(1, 1), bias=False)
           (1): BatchNorm2d(144, eps=1e-05, momentum=0.1, affine=True, track_running_stats=True)
           (2): SiLU(inplace=True)
         )
         (1): ConvNormActivation(
           (0): Conv2d(144, 144, kernel_size=(3, 3), stride=(1, 1), padding=(1, 1), groups=144, bias=False)
           (1): BatchNorm2d(144, eps=1e-05, momentum=0.1, affine=True, track_running_stats=True)
           (2): SiLU(inplace=True)
         )
         (2): SqueezeExcitation(
           (avgpool): AdaptiveAvgPool2d(output_size=1)
           (fc1): Conv2d(144, 6, kernel_size=(1, 1), stride=(1, 1))
           (fc2): Conv2d(6, 144, kernel_size=(1, 1), stride=(1, 1))
           (activation): SiLU(inplace=True)
           (scale_activation): Sigmoid()
         )
         (3): ConvNormActivation(
           (0): Conv2d(144, 24, kernel_size=(1, 1), stride=(1, 1), bias=False)
           (1): BatchNorm2d(24, eps=1e-05, momentum=0.1, affine=True, track_running_stats=True)
         )
       )
       (stochastic_depth): StochasticDepth(p=0.025, mode=row)
     )
   )
   (3): Sequential(
     (0): MBConv(
       (block): Sequential(
         (0): ConvNormActivation(
           (0): Conv2d(24, 144, kernel_size=(1, 1), stride=(1, 1), bias=False)
           (1): BatchNorm2d(144, eps=1e-05, momentum=0.1, affine=True, track_running_stats=True)
           (2): SiLU(inplace=True)
         )
         (1): ConvNormActivation(
           (0): Conv2d(144, 144, kernel_size=(5, 5), stride=(2, 2), padding=(2, 2), groups=144, bias=False)
           (1): BatchNorm2d(144, eps=1e-05, momentum=0.1, affine=True, track_running_stats=True)
           (2): SiLU(inplace=True)
         )
         (2): SqueezeExcitation(
           (avgpool): AdaptiveAvgPool2d(output_size=1)
           (fc1): Conv2d(144, 6, kernel_size=(1, 1), stride=(1, 1))
           (fc2): Conv2d(6, 144, kernel_size=(1, 1), stride=(1, 1))
           (activation): SiLU(inplace=True)
           (scale_activation): Sigmoid()
         )
         (3): ConvNormActivation(
           (0): Conv2d(144, 40, kernel_size=(1, 1), stride=(1, 1), bias=False)
           (1): BatchNorm2d(40, eps=1e-05, momentum=0.1, affine=True, track_running_stats=True)
         )
       )
       (stochastic_depth): StochasticDepth(p=0.037500000000000006, mode=row)
     )
     (1): MBConv(
       (block): Sequential(
         (0): ConvNormActivation(
           (0): Conv2d(40, 240, kernel_size=(1, 1), stride=(1, 1), bias=False)
           (1): BatchNorm2d(240, eps=1e-05, momentum=0.1, affine=True, track_running_stats=True)
           (2): SiLU(inplace=True)
         )
         (1): ConvNormActivation(
           (0): Conv2d(240, 240, kernel_size=(5, 5), stride=(1, 1), padding=(2, 2), groups=240, bias=False)
           (1): BatchNorm2d(240, eps=1e-05, momentum=0.1, affine=True, track_running_stats=True)
           (2): SiLU(inplace=True)
         )
         (2): SqueezeExcitation(
           (avgpool): AdaptiveAvgPool2d(output_size=1)
           (fc1): Conv2d(240, 10, kernel_size=(1, 1), stride=(1, 1))
           (fc2): Conv2d(10, 240, kernel_size=(1, 1), stride=(1, 1))
           (activation): SiLU(inplace=True)
           (scale_activation): Sigmoid()
         )
         (3): ConvNormActivation(
           (0): Conv2d(240, 40, kernel_size=(1, 1), stride=(1, 1), bias=False)
           (1): BatchNorm2d(40, eps=1e-05, momentum=0.1, affine=True, track_running_stats=True)
         )
       )
       (stochastic_depth): StochasticDepth(p=0.05, mode=row)
     )
   )
   (4): Sequential(
     (0): MBConv(
       (block): Sequential(
         (0): ConvNormActivation(
           (0): Conv2d(40, 240, kernel_size=(1, 1), stride=(1, 1), bias=False)
           (1): BatchNorm2d(240, eps=1e-05, momentum=0.1, affine=True, track_running_stats=True)
           (2): SiLU(inplace=True)
         )
         (1): ConvNormActivation(
           (0): Conv2d(240, 240, kernel_size=(3, 3), stride=(2, 2), padding=(1, 1), groups=240, bias=False)
           (1): BatchNorm2d(240, eps=1e-05, momentum=0.1, affine=True, track_running_stats=True)
           (2): SiLU(inplace=True)
         )
         (2): SqueezeExcitation(
           (avgpool): AdaptiveAvgPool2d(output_size=1)
           (fc1): Conv2d(240, 10, kernel_size=(1, 1), stride=(1, 1))
           (fc2): Conv2d(10, 240, kernel_size=(1, 1), stride=(1, 1))
           (activation): SiLU(inplace=True)
           (scale_activation): Sigmoid()
         )
         (3): ConvNormActivation(
           (0): Conv2d(240, 80, kernel_size=(1, 1), stride=(1, 1), bias=False)
           (1): BatchNorm2d(80, eps=1e-05, momentum=0.1, affine=True, track_running_stats=True)
         )
       )
       (stochastic_depth): StochasticDepth(p=0.0625, mode=row)
     )
     (1): MBConv(
       (block): Sequential(
         (0): ConvNormActivation(
           (0): Conv2d(80, 480, kernel_size=(1, 1), stride=(1, 1), bias=False)
           (1): BatchNorm2d(480, eps=1e-05, momentum=0.1, affine=True, track_running_stats=True)
           (2): SiLU(inplace=True)
         )
         (1): ConvNormActivation(
           (0): Conv2d(480, 480, kernel_size=(3, 3), stride=(1, 1), padding=(1, 1), groups=480, bias=False)
           (1): BatchNorm2d(480, eps=1e-05, momentum=0.1, affine=True, track_running_stats=True)
           (2): SiLU(inplace=True)
         )
         (2): SqueezeExcitation(
           (avgpool): AdaptiveAvgPool2d(output_size=1)
           (fc1): Conv2d(480, 20, kernel_size=(1, 1), stride=(1, 1))
           (fc2): Conv2d(20, 480, kernel_size=(1, 1), stride=(1, 1))
           (activation): SiLU(inplace=True)
           (scale_activation): Sigmoid()
         )
         (3): ConvNormActivation(
           (0): Conv2d(480, 80, kernel_size=(1, 1), stride=(1, 1), bias=False)
           (1): BatchNorm2d(80, eps=1e-05, momentum=0.1, affine=True, track_running_stats=True)
         )
       )
       (stochastic_depth): StochasticDepth(p=0.07500000000000001, mode=row)
     )
     (2): MBConv(
       (block): Sequential(
         (0): ConvNormActivation(
           (0): Conv2d(80, 480, kernel_size=(1, 1), stride=(1, 1), bias=False)
           (1): BatchNorm2d(480, eps=1e-05, momentum=0.1, affine=True, track_running_stats=True)
           (2): SiLU(inplace=True)
         )
         (1): ConvNormActivation(
           (0): Conv2d(480, 480, kernel_size=(3, 3), stride=(1, 1), padding=(1, 1), groups=480, bias=False)
           (1): BatchNorm2d(480, eps=1e-05, momentum=0.1, affine=True, track_running_stats=True)
           (2): SiLU(inplace=True)
         )
         (2): SqueezeExcitation(
           (avgpool): AdaptiveAvgPool2d(output_size=1)
           (fc1): Conv2d(480, 20, kernel_size=(1, 1), stride=(1, 1))
           (fc2): Conv2d(20, 480, kernel_size=(1, 1), stride=(1, 1))
           (activation): SiLU(inplace=True)
           (scale_activation): Sigmoid()
         )
         (3): ConvNormActivation(
           (0): Conv2d(480, 80, kernel_size=(1, 1), stride=(1, 1), bias=False)
           (1): BatchNorm2d(80, eps=1e-05, momentum=0.1, affine=True, track_running_stats=True)
         )
       )
       (stochastic_depth): StochasticDepth(p=0.08750000000000001, mode=row)
     )
   )
   (5): Sequential(
     (0): MBConv(
       (block): Sequential(
         (0): ConvNormActivation(
           (0): Conv2d(80, 480, kernel_size=(1, 1), stride=(1, 1), bias=False)
           (1): BatchNorm2d(480, eps=1e-05, momentum=0.1, affine=True, track_running_stats=True)
           (2): SiLU(inplace=True)
         )
         (1): ConvNormActivation(
           (0): Conv2d(480, 480, kernel_size=(5, 5), stride=(1, 1), padding=(2, 2), groups=480, bias=False)
           (1): BatchNorm2d(480, eps=1e-05, momentum=0.1, affine=True, track_running_stats=True)
           (2): SiLU(inplace=True)
         )
         (2): SqueezeExcitation(
           (avgpool): AdaptiveAvgPool2d(output_size=1)
           (fc1): Conv2d(480, 20, kernel_size=(1, 1), stride=(1, 1))
           (fc2): Conv2d(20, 480, kernel_size=(1, 1), stride=(1, 1))
           (activation): SiLU(inplace=True)
           (scale_activation): Sigmoid()
         )
         (3): ConvNormActivation(
           (0): Conv2d(480, 112, kernel_size=(1, 1), stride=(1, 1), bias=False)
           (1): BatchNorm2d(112, eps=1e-05, momentum=0.1, affine=True, track_running_stats=True)
         )
       )
       (stochastic_depth): StochasticDepth(p=0.1, mode=row)
     )
     (1): MBConv(
       (block): Sequential(
         (0): ConvNormActivation(
           (0): Conv2d(112, 672, kernel_size=(1, 1), stride=(1, 1), bias=False)
           (1): BatchNorm2d(672, eps=1e-05, momentum=0.1, affine=True, track_running_stats=True)
           (2): SiLU(inplace=True)
         )
         (1): ConvNormActivation(
           (0): Conv2d(672, 672, kernel_size=(5, 5), stride=(1, 1), padding=(2, 2), groups=672, bias=False)
           (1): BatchNorm2d(672, eps=1e-05, momentum=0.1, affine=True, track_running_stats=True)
           (2): SiLU(inplace=True)
         )
         (2): SqueezeExcitation(
           (avgpool): AdaptiveAvgPool2d(output_size=1)
           (fc1): Conv2d(672, 28, kernel_size=(1, 1), stride=(1, 1))
           (fc2): Conv2d(28, 672, kernel_size=(1, 1), stride=(1, 1))
           (activation): SiLU(inplace=True)
           (scale_activation): Sigmoid()
         )
         (3): ConvNormActivation(
           (0): Conv2d(672, 112, kernel_size=(1, 1), stride=(1, 1), bias=False)
           (1): BatchNorm2d(112, eps=1e-05, momentum=0.1, affine=True, track_running_stats=True)
         )
       )
       (stochastic_depth): StochasticDepth(p=0.1125, mode=row)
     )
     (2): MBConv(
       (block): Sequential(
         (0): ConvNormActivation(
           (0): Conv2d(112, 672, kernel_size=(1, 1), stride=(1, 1), bias=False)
           (1): BatchNorm2d(672, eps=1e-05, momentum=0.1, affine=True, track_running_stats=True)
           (2): SiLU(inplace=True)
         )
         (1): ConvNormActivation(
           (0): Conv2d(672, 672, kernel_size=(5, 5), stride=(1, 1), padding=(2, 2), groups=672, bias=False)
           (1): BatchNorm2d(672, eps=1e-05, momentum=0.1, affine=True, track_running_stats=True)
           (2): SiLU(inplace=True)
         )
         (2): SqueezeExcitation(
           (avgpool): AdaptiveAvgPool2d(output_size=1)
           (fc1): Conv2d(672, 28, kernel_size=(1, 1), stride=(1, 1))
           (fc2): Conv2d(28, 672, kernel_size=(1, 1), stride=(1, 1))
           (activation): SiLU(inplace=True)
           (scale_activation): Sigmoid()
         )
         (3): ConvNormActivation(
           (0): Conv2d(672, 112, kernel_size=(1, 1), stride=(1, 1), bias=False)
           (1): BatchNorm2d(112, eps=1e-05, momentum=0.1, affine=True, track_running_stats=True)
         )
       )
       (stochastic_depth): StochasticDepth(p=0.125, mode=row)
     )
   )
   (6): Sequential(
     (0): MBConv(
       (block): Sequential(
         (0): ConvNormActivation(
           (0): Conv2d(112, 672, kernel_size=(1, 1), stride=(1, 1), bias=False)
           (1): BatchNorm2d(672, eps=1e-05, momentum=0.1, affine=True, track_running_stats=True)
           (2): SiLU(inplace=True)
         )
         (1): ConvNormActivation(
           (0): Conv2d(672, 672, kernel_size=(5, 5), stride=(2, 2), padding=(2, 2), groups=672, bias=False)
           (1): BatchNorm2d(672, eps=1e-05, momentum=0.1, affine=True, track_running_stats=True)
           (2): SiLU(inplace=True)
         )
         (2): SqueezeExcitation(
           (avgpool): AdaptiveAvgPool2d(output_size=1)
           (fc1): Conv2d(672, 28, kernel_size=(1, 1), stride=(1, 1))
           (fc2): Conv2d(28, 672, kernel_size=(1, 1), stride=(1, 1))
           (activation): SiLU(inplace=True)
           (scale_activation): Sigmoid()
         )
         (3): ConvNormActivation(
           (0): Conv2d(672, 192, kernel_size=(1, 1), stride=(1, 1), bias=False)
           (1): BatchNorm2d(192, eps=1e-05, momentum=0.1, affine=True, track_running_stats=True)
         )
       )
       (stochastic_depth): StochasticDepth(p=0.1375, mode=row)
     )
     (1): MBConv(
       (block): Sequential(
         (0): ConvNormActivation(
           (0): Conv2d(192, 1152, kernel_size=(1, 1), stride=(1, 1), bias=False)
           (1): BatchNorm2d(1152, eps=1e-05, momentum=0.1, affine=True, track_running_stats=True)
           (2): SiLU(inplace=True)
         )
         (1): ConvNormActivation(
           (0): Conv2d(1152, 1152, kernel_size=(5, 5), stride=(1, 1), padding=(2, 2), groups=1152, bias=False)
           (1): BatchNorm2d(1152, eps=1e-05, momentum=0.1, affine=True, track_running_stats=True)
           (2): SiLU(inplace=True)
         )
         (2): SqueezeExcitation(
           (avgpool): AdaptiveAvgPool2d(output_size=1)
           (fc1): Conv2d(1152, 48, kernel_size=(1, 1), stride=(1, 1))
           (fc2): Conv2d(48, 1152, kernel_size=(1, 1), stride=(1, 1))
           (activation): SiLU(inplace=True)
           (scale_activation): Sigmoid()
         )
         (3): ConvNormActivation(
           (0): Conv2d(1152, 192, kernel_size=(1, 1), stride=(1, 1), bias=False)
           (1): BatchNorm2d(192, eps=1e-05, momentum=0.1, affine=True, track_running_stats=True)
         )
       )
       (stochastic_depth): StochasticDepth(p=0.15000000000000002, mode=row)
     )
     (2): MBConv(
       (block): Sequential(
         (0): ConvNormActivation(
           (0): Conv2d(192, 1152, kernel_size=(1, 1), stride=(1, 1), bias=False)
           (1): BatchNorm2d(1152, eps=1e-05, momentum=0.1, affine=True, track_running_stats=True)
           (2): SiLU(inplace=True)
         )
         (1): ConvNormActivation(
           (0): Conv2d(1152, 1152, kernel_size=(5, 5), stride=(1, 1), padding=(2, 2), groups=1152, bias=False)
           (1): BatchNorm2d(1152, eps=1e-05, momentum=0.1, affine=True, track_running_stats=True)
           (2): SiLU(inplace=True)
         )
         (2): SqueezeExcitation(
           (avgpool): AdaptiveAvgPool2d(output_size=1)
           (fc1): Conv2d(1152, 48, kernel_size=(1, 1), stride=(1, 1))
           (fc2): Conv2d(48, 1152, kernel_size=(1, 1), stride=(1, 1))
           (activation): SiLU(inplace=True)
           (scale_activation): Sigmoid()
         )
         (3): ConvNormActivation(
           (0): Conv2d(1152, 192, kernel_size=(1, 1), stride=(1, 1), bias=False)
           (1): BatchNorm2d(192, eps=1e-05, momentum=0.1, affine=True, track_running_stats=True)
         )
       )
       (stochastic_depth): StochasticDepth(p=0.1625, mode=row)
     )
     (3): MBConv(
       (block): Sequential(
         (0): ConvNormActivation(
           (0): Conv2d(192, 1152, kernel_size=(1, 1), stride=(1, 1), bias=False)
           (1): BatchNorm2d(1152, eps=1e-05, momentum=0.1, affine=True, track_running_stats=True)
           (2): SiLU(inplace=True)
         )
         (1): ConvNormActivation(
           (0): Conv2d(1152, 1152, kernel_size=(5, 5), stride=(1, 1), padding=(2, 2), groups=1152, bias=False)
           (1): BatchNorm2d(1152, eps=1e-05, momentum=0.1, affine=True, track_running_stats=True)
           (2): SiLU(inplace=True)
         )
         (2): SqueezeExcitation(
           (avgpool): AdaptiveAvgPool2d(output_size=1)
           (fc1): Conv2d(1152, 48, kernel_size=(1, 1), stride=(1, 1))
           (fc2): Conv2d(48, 1152, kernel_size=(1, 1), stride=(1, 1))
           (activation): SiLU(inplace=True)
           (scale_activation): Sigmoid()
         )
         (3): ConvNormActivation(
           (0): Conv2d(1152, 192, kernel_size=(1, 1), stride=(1, 1), bias=False)
           (1): BatchNorm2d(192, eps=1e-05, momentum=0.1, affine=True, track_running_stats=True)
         )
       )
       (stochastic_depth): StochasticDepth(p=0.17500000000000002, mode=row)
     )
   )
   (7): Sequential(
     (0): MBConv(
       (block): Sequential(
         (0): ConvNormActivation(
           (0): Conv2d(192, 1152, kernel_size=(1, 1), stride=(1, 1), bias=False)
           (1): BatchNorm2d(1152, eps=1e-05, momentum=0.1, affine=True, track_running_stats=True)
           (2): SiLU(inplace=True)
         )
         (1): ConvNormActivation(
           (0): Conv2d(1152, 1152, kernel_size=(3, 3), stride=(1, 1), padding=(1, 1), groups=1152, bias=False)
           (1): BatchNorm2d(1152, eps=1e-05, momentum=0.1, affine=True, track_running_stats=True)
           (2): SiLU(inplace=True)
         )
         (2): SqueezeExcitation(
           (avgpool): AdaptiveAvgPool2d(output_size=1)
           (fc1): Conv2d(1152, 48, kernel_size=(1, 1), stride=(1, 1))
           (fc2): Conv2d(48, 1152, kernel_size=(1, 1), stride=(1, 1))
           (activation): SiLU(inplace=True)
           (scale_activation): Sigmoid()
         )
         (3): ConvNormActivation(
           (0): Conv2d(1152, 320, kernel_size=(1, 1), stride=(1, 1), bias=False)
           (1): BatchNorm2d(320, eps=1e-05, momentum=0.1, affine=True, track_running_stats=True)
         )
       )
       (stochastic_depth): StochasticDepth(p=0.1875, mode=row)
     )
   )
   (8): ConvNormActivation(
     (0): Conv2d(320, 1280, kernel_size=(1, 1), stride=(1, 1), bias=False)
     (1): BatchNorm2d(1280, eps=1e-05, momentum=0.1, affine=True, track_running_stats=True)
     (2): SiLU(inplace=True)
   )
 ),
 AdaptiveAvgPool2d(output_size=1),
 Sequential(
   (0): Dropout(p=0.2, inplace=True)
   (1): Linear(in_features=1280, out_features=1000, bias=True)
 )]&lt;/pre&gt;
&lt;/div&gt;

&lt;/div&gt;

&lt;/div&gt;
&lt;/div&gt;

&lt;/div&gt;
    

&lt;div class=&quot;cell border-box-sizing text_cell rendered&quot;&gt;&lt;div class=&quot;inner_cell&quot;&gt;
&lt;div class=&quot;text_cell_render border-box-sizing rendered_html&quot;&gt;
&lt;p&gt;As it can be seen, the pooling layer is at index &lt;code&gt;-2&lt;/code&gt;, which corresponds to the &lt;code&gt;cut&lt;/code&gt; value. We'll use the &lt;code&gt;default_split&lt;/code&gt; for &lt;code&gt;split&lt;/code&gt; function and ImageNet stats for &lt;code&gt;EfficientNetB0&lt;/code&gt;.&lt;/p&gt;
…
;span class=&quot;n&quot;&gt;children&lt;/span&gt;&lt;span class=&quot;p&quot;&gt;())[:&lt;/span&gt;&lt;span class=&quot;o&quot;&gt;-&lt;/span&gt;&lt;span class=&quot;mi&quot;&gt;1&lt;/span&gt;&lt;span class=&quot;p&quot;&gt;]&lt;/span&gt;
&lt;/pre&gt;&lt;/div&gt;

    &lt;/div&gt;
&lt;/div&gt;
&lt;/div&gt;

&lt;div class=&quot;output_wrapper&quot;&gt;
&lt;div class=&quot;output&quot;&gt;

&lt;div class=&quot;output_area&quot;&gt;



&lt;div class=&quot;output_text output_subarea output_execute_result&quot;&gt;
&lt;pre&gt;[Sequential(
   (0): Sequential(
     (0): ConvNormActivation(
       (0): Conv2d(3, 32, kernel_size=(3, 3), stride=(2, 2), padding=(1, 1), bias=False)
       (1): BatchNorm2d(32, eps=1e-05, momentum=0.1, affine=True, track_running_stats=True)
       (2): SiLU(inplace=True)
     )
     (1): Sequential(
       (0): MBConv(
         (block): Sequential(
           (0): ConvNormActivation(
             (0): Conv2d(32, 32, kernel_size=(3, 3), stride=(1, 1), padding=(1, 1), groups=32, bias=False)
             (1): BatchNorm2d(32, eps=1e-05, momentum=0.1, affine=True, track_running_stats=True)
             (2): SiLU(inplace=True)
           )
           (1): SqueezeExcitation(
             (avgpool): AdaptiveAvgPool2d(output_size=1)
             (fc1): Conv2d(32, 8, kernel_size=(1, 1), stride=(1, 1))
             (fc2): Conv2d(8, 32, kernel_size=(1, 1), stride=(1, 1))
             (activation): SiLU(inplace=True)
             (scale_activation): Sigmoid()
           )
           (2): ConvNormActivation(
             (0): Conv2d(32, 16, kernel_size=(1, 1), stride=(1, 1), bias=False)
             (1): BatchNorm2d(16, eps=1e-05, momentum=0.1, affine=True, track_running_stats=True)
           )
         )
         (stochastic_depth): StochasticDepth(p=0.0, mode=row)
       )
     )
     (2): Sequential(
       (0): MBConv(
         (block): Sequential(
           (0): ConvNormActivation(
             (0): Conv2d(16, 96, kernel_size=(1, 1), stride=(1, 1), bias=False)
             (1): BatchNorm2d(96, eps=1e-05, momentum=0.1, affine=True, track_running_stats=True)
             (2): SiLU(inplace=True)
           )
           (1): ConvNormActivation(
             (0): Conv2d(96, 96, kernel_size=(3, 3), stride=(2, 2), padding=(1, 1), groups=96, bias=False)
             (1): BatchNorm2d(96, eps=1e-05, momentum=0.1, affine=True, track_running_stats=True)
             (2): SiLU(inplace=True)
           )
           (2): SqueezeExcitation(
             (avgpool): AdaptiveAvgPool2d(output_size=1)
             (fc1): Conv2d(96, 4, kernel_size=(1, 1), stride=(1, 1))
             (fc2): Conv2d(4, 96, kernel_size=(1, 1), stride=(1, 1))
             (activation): SiLU(inplace=True)
             (scale_activation): Sigmoid()
           )
           (3): ConvNormActivation(
             (0): Conv2d(96, 24, kernel_size=(1, 1), stride=(1, 1), bias=False)
             (1): BatchNorm2d(24, eps=1e-05, momentum=0.1, affine=True, track_running_stats=True)
           )
         )
         (stochastic_depth): StochasticDepth(p=0.0125, mode=row)
       )
       (1): MBConv(
         (block): Sequential(
           (0): ConvNormActivation(
             (0): Conv2d(24, 144, kernel_size=(1, 1), stride=(1, 1), bias=False)
             (1): BatchNorm2d(144, eps=1e-05, momentum=0.1, affine=True, track_running_stats=True)
             (2): SiLU(inplace=True)
           )
           (1): ConvNormActivation(
             (0): Conv2d(144, 144, kernel_size=(3, 3), stride=(1, 1), padding=(1, 1), groups=144, bias=False)
             (1): BatchNorm2d(144, eps=1e-05, momentum=0.1, affine=True, track_running_stats=True)
             (2): SiLU(inplace=True)
           )
           (2): SqueezeExcitation(
             (avgpool): AdaptiveAvgPool2d(output_size=1)
             (fc1): Conv2d(144, 6, kernel_size=(1, 1), stride=(1, 1))
             (fc2): Conv2d(6, 144, kernel_size=(1, 1), stride=(1, 1))
             (activation): SiLU(inplace=True)
             (scale_activation): Sigmoid()
           )
           (3): ConvNormActivation(
             (0): Conv2d(144, 24, kernel_size=(1, 1), stride=(1, 1), bias=False)
             (1): BatchNorm2d(24, eps=1e-05, momentum=0.1, affine=True, track_running_stats=True)
           )
         )
         (stochastic_depth): StochasticDepth(p=0.025, mode=row)
       )
     )
     (3): Sequential(
       (0): MBConv(
         (block): Sequential(
           (0): ConvNormActivation(
             (0): Conv2d(24, 144, kernel_size=(1, 1), stride=(1, 1), bias=False)
             (1): BatchNorm2d(144, eps=1e-05, momentum=0.1, affine=True, track_running_stats=True)
             (2): SiLU(inplace=True)
           )
           (1): ConvNormActivation(
             (0): Conv2d(144, 144, kernel_size=(5, 5), stride=(2, 2), padding=(2, 2), groups=144, bias=False)
             (1): BatchNorm2d(144, eps=1e-05, momentum=0.1, affine=True, track_running_stats=True)
             (2): SiLU(inplace=True)
           )
           (2): SqueezeExcitation(
             (avgpool): AdaptiveAvgPool2d(output_size=1)
             (fc1): Conv2d(144, 6, kernel_size=(1, 1), stride=(1, 1))
             (fc2): Conv2d(6, 144, kernel_size=(1, 1), stride=(1, 1))
             (activation): SiLU(inplace=True)
             (scale_activation): Sigmoid()
           )
           (3): ConvNormActivation(
             (0): Conv2d(144, 40, kernel_size=(1, 1), stride=(1, 1), bias=False)
             (1): BatchNorm2d(40, eps=1e-05, momentum=0.1, affine=True, track_running_stats=True)
           )
         )
         (stochastic_depth): StochasticDepth(p=0.037500000000000006, mode=row)
       )
       (1): MBConv(
         (block): Sequential(
           (0): ConvNormActivation(
             (0): Conv2d(40, 240, kernel_size=(1, 1), stride=(1, 1), bias=False)
             (1): BatchNorm2d(240, eps=1e-05, momentum=0.1, affine=True, track_running_stats=True)
             (2): SiLU(inplace=True)
           )
           (1): ConvNormActivation(
             (0): Conv2d(240, 240, kernel_size=(5, 5), stride=(1, 1), padding=(2, 2), groups=240, bias=False)
             (1): BatchNorm2d(240, eps=1e-05, momentum=0.1, affine=True, track_running_stats=True)
             (2): SiLU(inplace=True)
           )
           (2): SqueezeExcitation(
             (avgpool): AdaptiveAvgPool2d(output_size=1)
             (fc1): Conv2d(240, 10, kernel_size=(1, 1), stride=(1, 1))
             (fc2): Conv2d(10, 240, kernel_size=(1, 1), stride=(1, 1))
             (activation): SiLU(inplace=True)
             (scale_activation): Sigmoid()
           )
           (3): ConvNormActivation(
             (0): Conv2d(240, 40, kernel_size=(1, 1), stride=(1, 1), bias=False)
             (1): BatchNorm2d(40, eps=1e-05, momentum=0.1, affine=True, track_running_stats=True)
           )
         )
         (stochastic_depth): StochasticDepth(p=0.05, mode=row)
       )
     )
     (4): Sequential(
       (0): MBConv(
         (block): Sequential(
           (0): ConvNormActivation(
             (0): Conv2d(40, 240, kernel_size=(1, 1), stride=(1, 1), bias=False)
             (1): BatchNorm2d(240, eps=1e-05, momentum=0.1, affine=True, track_running_stats=True)
             (2): SiLU(inplace=True)
           )
           (1): ConvNormActivation(
             (0): Conv2d(240, 240, kernel_size=(3, 3), stride=(2, 2), padding=(1, 1), groups=240, bias=False)
             (1): BatchNorm2d(240, eps=1e-05, momentum=0.1, affine=True, track_running_stats=True)
             (2): SiLU(inplace=True)
           )
           (2): SqueezeExcitation(
             (avgpool): AdaptiveAvgPool2d(output_size=1)
             (fc1): Conv2d(240, 10, kernel_size=(1, 1), stride=(1, 1))
             (fc2): Conv2d(10, 240, kernel_size=(1, 1), stride=(1, 1))
             (activation): SiLU(inplace=True)
             (scale_activation): Sigmoid()
           )
           (3): ConvNormActivation(
             (0): Conv2d(240, 80, kernel_size=(1, 1), stride=(1, 1), bias=False)
             (1): BatchNorm2d(80, eps=1e-05, momentum=0.1, affine=True, track_running_stats=True)
           )
         )
         (stochastic_depth): StochasticDepth(p=0.0625, mode=row)
       )
       (1): MBConv(
         (block): Sequential(
           (0): ConvNormActivation(
             (0): Conv2d(80, 480, kernel_size=(1, 1), stride=(1, 1), bias=False)
             (1): BatchNorm2d(480, eps=1e-05, momentum=0.1, affine=True, track_running_stats=True)
             (2): SiLU(inplace=True)
           )
           (1): ConvNormActivation(
             (0): Conv2d(480, 480, kernel_size=(3, 3), stride=(1, 1), padding=(1, 1), groups=480, bias=False)
             (1): BatchNorm2d(480, eps=1e-05, momentum=0.1, affine=True, track_running_stats=True)
             (2): SiLU(inplace=True)
           )
           (2): SqueezeExcitation(
             (avgpool): AdaptiveAvgPool2d(output_size=1)
             (fc1): Conv2d(480, 20, kernel_size=(1, 1), stride=(1, 1))
             (fc2): Conv2d(20, 480, kernel_size=(1, 1), stride=(1, 1))
             (activation): SiLU(inplace=True)
             (scale_activation): Sigmoid()
           )
           (3): ConvNormActivation(
             (0): Conv2d(480, 80, kernel_size=(1, 1), stride=(1, 1), bias=False)
             (1): BatchNorm2d(80, eps=1e-05, momentum=0.1, affine=True, track_running_stats=True)
           )
         )
         (stochastic_depth): StochasticDepth(p=0.07500000000000001, mode=row)
       )
       (2): MBConv(
         (block): Sequential(
           (0): ConvNormActivation(
             (0): Conv2d(80, 480, kernel_size=(1, 1), stride=(1, 1), bias=False)
             (1): BatchNorm2d(480, eps=1e-05, momentum=0.1, affine=True, track_running_stats=True)
             (2): SiLU(inplace=True)
           )
           (1): ConvNormActivation(
             (0): Conv2d(480, 480, kernel_size=(3, 3), stride=(1, 1), padding=(1, 1), groups=480, bias=False)
             (1): BatchNorm2d(480, eps=1e-05, momentum=0.1, affine=True, track_running_stats=True)
             (2): SiLU(inplace=True)
           )
           (2): SqueezeExcitation(
             (avgpool): AdaptiveAvgPool2d(output_size=1)
             (fc1): Conv2d(480, 20, kernel_size=(1, 1), stride=(1, 1))
             (fc2): Conv2d(20, 480, kernel_size=(1, 1), stride=(1, 1))
             (activation): SiLU(inplace=True)
             (scale_activation): Sigmoid()
           )
           (3): ConvNormActivation(
             (0): Conv2d(480, 80, kernel_size=(1, 1), stride=(1, 1), bias=False)
             (1): BatchNorm2d(80, eps=1e-05, momentum=0.1, affine=True, track_running_stats=True)
           )
         )
         (stochastic_depth): StochasticDepth(p=0.08750000000000001, mode=row)
       )
     )
     (5): Sequential(
       (0): MBConv(
         (block): Sequential(
           (0): ConvNormActivation(
             (0): Conv2d(80, 480, kernel_size=(1, 1), stride=(1, 1), bias=False)
             (1): BatchNorm2d(480, eps=1e-05, momentum=0.1, affine=True, track_running_stats=True)
             (2): SiLU(inplace=True)
           )
           (1): ConvNormActivation(
             (0): Conv2d(480, 480, kernel_size=(5, 5), stride=(1, 1), padding=(2, 2), groups=480, bias=False)
             (1): BatchNorm2d(480, eps=1e-05, momentum=0.1, affine=True, track_running_stats=True)
             (2): SiLU(inplace=True)
           )
           (2): SqueezeExcitation(
             (avgpool): AdaptiveAvgPool2d(output_size=1)
             (fc1): Conv2d(480, 20, kernel_size=(1, 1), stride=(1, 1))
             (fc2): Conv2d(20, 480, kernel_size=(1, 1), stride=(1, 1))
             (activation): SiLU(inplace=True)
             (scale_activation): Sigmoid()
           )
           (3): ConvNormActivation(
             (0): Conv2d(480, 112, kernel_size=(1, 1), stride=(1, 1), bias=False)
             (1): BatchNorm2d(112, eps=1e-05, momentum=0.1, affine=True, track_running_stats=True)
           )
         )
         (stochastic_depth): StochasticDepth(p=0.1, mode=row)
       )
       (1): MBConv(
         (block): Sequential(
           (0): ConvNormActivation(
             (0): Conv2d(112, 672, kernel_size=(1, 1), stride=(1, 1), bias=False)
             (1): BatchNorm2d(672, eps=1e-05, momentum=0.1, affine=True, track_running_stats=True)
             (2): SiLU(inplace=True)
           )
           (1): ConvNormActivation(
             (0): Conv2d(672, 672, kernel_size=(5, 5), stride=(1, 1), padding=(2, 2), groups=672, bias=False)
             (1): BatchNorm2d(672, eps=1e-05, momentum=0.1, affine=True, track_running_stats=True)
             (2): SiLU(inplace=True)
           )
           (2): SqueezeExcitation(
             (avgpool): AdaptiveAvgPool2d(output_size=1)
             (fc1): Conv2d(672, 28, kernel_size=(1, 1), stride=(1, 1))
             (fc2): Conv2d(28, 672, kernel_size=(1, 1), stride=(1, 1))
             (activation): SiLU(inplace=True)
             (scale_activation): Sigmoid()
           )
           (3): ConvNormActivation(
             (0): Conv2d(672, 112, kernel_size=(1, 1), stride=(1, 1), bias=False)
             (1): BatchNorm2d(112, eps=1e-05, momentum=0.1, affine=True, track_running_stats=True)
           )
         )
         (stochastic_depth): StochasticDepth(p=0.1125, mode=row)
       )
       (2): MBConv(
         (block): Sequential(
           (0): ConvNormActivation(
             (0): Conv2d(112, 672, kernel_size=(1, 1), stride=(1, 1), bias=False)
             (1): BatchNorm2d(672, eps=1e-05, momentum=0.1, affine=True, track_running_stats=True)
             (2): SiLU(inplace=True)
           )
           (1): ConvNormActivation(
             (0): Conv2d(672, 672, kernel_size=(5, 5), stride=(1, 1), padding=(2, 2), groups=672, bias=False)
             (1): BatchNorm2d(672, eps=1e-05, momentum=0.1, affine=True, track_running_stats=True)
             (2): SiLU(inplace=True)
           )
           (2): SqueezeExcitation(
             (avgpool): AdaptiveAvgPool2d(output_size=1)
             (fc1): Conv2d(672, 28, kernel_size=(1, 1), stride=(1, 1))
             (fc2): Conv2d(28, 672, kernel_size=(1, 1), stride=(1, 1))
             (activation): SiLU(inplace=True)
             (scale_activation): Sigmoid()
           )
           (3): ConvNormActivation(
             (0): Conv2d(672, 112, kernel_size=(1, 1), stride=(1, 1), bias=False)
             (1): BatchNorm2d(112, eps=1e-05, momentum=0.1, affine=True, track_running_stats=True)
           )
         )
         (stochastic_depth): StochasticDepth(p=0.125, mode=row)
       )
     )
     (6): Sequential(
       (0): MBConv(
         (block): Sequential(
           (0): ConvNormActivation(
             (0): Conv2d(112, 672, kernel_size=(1, 1), stride=(1, 1), bias=False)
             (1): BatchNorm2d(672, eps=1e-05, momentum=0.1, affine=True, track_running_stats=True)
             (2): SiLU(inplace=True)
           )
           (1): ConvNormActivation(
             (0): Conv2d(672, 672, kernel_size=(5, 5), stride=(2, 2), padding=(2, 2), groups=672, bias=False)
             (1): BatchNorm2d(672, eps=1e-05, momentum=0.1, affine=True, track_running_stats=True)
             (2): SiLU(inplace=True)
           )
           (2): SqueezeExcitation(
             (avgpool): AdaptiveAvgPool2d(output_size=1)
             (fc1): Conv2d(672, 28, kernel_size=(1, 1), stride=(1, 1))
             (fc2): Conv2d(28, 672, kernel_size=(1, 1), stride=(1, 1))
             (activation): SiLU(inplace=True)
             (scale_activation): Sigmoid()
           )
           (3): ConvNormActivation(
             (0): Conv2d(672, 192, kernel_size=(1, 1), stride=(1, 1), bias=False)
             (1): BatchNorm2d(192, eps=1e-05, momentum=0.1, affine=True, track_running_stats=True)
           )
         )
         (stochastic_depth): StochasticDepth(p=0.1375, mode=row)
       )
       (1): MBConv(
         (block): Sequential(
           (0): ConvNormActivation(
             (0): Conv2d(192, 1152, kernel_size=(1, 1), stride=(1, 1), bias=False)
             (1): BatchNorm2d(1152, eps=1e-05, momentum=0.1, affine=True, track_running_stats=True)
             (2): SiLU(inplace=True)
           )
           (1): ConvNormActivation(
             (0): Conv2d(1152, 1152, kernel_size=(5, 5), stride=(1, 1), padding=(2, 2), groups=1152, bias=False)
             (1): BatchNorm2d(1152, eps=1e-05, momentum=0.1, affine=True, track_running_stats=True)
             (2): SiLU(inplace=True)
           )
           (2): SqueezeExcitation(
             (avgpool): AdaptiveAvgPool2d(output_size=1)
             (fc1): Conv2d(1152, 48, kernel_size=(1, 1), stride=(1, 1))
             (fc2): Conv2d(48, 1152, kernel_size=(1, 1), stride=(1, 1))
             (activation): SiLU(inplace=True)
             (scale_activation): Sigmoid()
           )
           (3): ConvNormActivation(
             (0): Conv2d(1152, 192, kernel_size=(1, 1), stride=(1, 1), bias=False)
             (1): BatchNorm2d(192, eps=1e-05, momentum=0.1, affine=True, track_running_stats=True)
           )
         )
         (stochastic_depth): StochasticDepth(p=0.15000000000000002, mode=row)
       )
       (2): MBConv(
         (block): Sequential(
           (0): ConvNormActivation(
             (0): Conv2d(192, 1152, kernel_size=(1, 1), stride=(1, 1), bias=False)
             (1): BatchNorm2d(1152, eps=1e-05, momentum=0.1, affine=True, track_running_stats=True)
             (2): SiLU(inplace=True)
           )
           (1): ConvNormActivation(
             (0): Conv2d(1152, 1152, kernel_size=(5, 5), stride=(1, 1), padding=(2, 2), groups=1152, bias=False)
             (1): BatchNorm2d(1152, eps=1e-05, momentum=0.1, affine=True, track_running_stats=True)
             (2): SiLU(inplace=True)
           )
           (2): SqueezeExcitation(
             (avgpool): AdaptiveAvgPool2d(output_size=1)
             (fc1): Conv2d(1152, 48, kernel_size=(1, 1), stride=(1, 1))
             (fc2): Conv2d(48, 1152, kernel_size=(1, 1), stride=(1, 1))
             (activation): SiLU(inplace=True)
             (scale_activation): Sigmoid()
           )
           (3): ConvNormActivation(
             (0): Conv2d(1152, 192, kernel_size=(1, 1), stride=(1, 1), bias=False)
             (1): BatchNorm2d(192, eps=1e-05, momentum=0.1, affine=True, track_running_stats=True)
           )
         )
         (stochastic_depth): StochasticDepth(p=0.1625, mode=row)
       )
       (3): MBConv(
         (block): Sequential(
           (0): ConvNormActivation(
             (0): Conv2d(192, 1152, kernel_size=(1, 1), stride=(1, 1), bias=False)
             (1): BatchNorm2d(1152, eps=1e-05, momentum=0.1, affine=True, track_running_stats=True)
             (2): SiLU(inplace=True)
           )
           (1): ConvNormActivation(
             (0): Conv2d(1152, 1152, kernel_size=(5, 5), stride=(1, 1), padding=(2, 2), groups=1152, bias=False)
             (1): BatchNorm2d(1152, eps=1e-05, momentum=0.1, affine=True, track_running_stats=True)
             (2): SiLU(inplace=True)
           )
           (2): SqueezeExcitation(
             (avgpool): AdaptiveAvgPool2d(output_size=1)
             (fc1): Conv2d(1152, 48, kernel_size=(1, 1), stride=(1, 1))
             (fc2): Conv2d(48, 1152, kernel_size=(1, 1), stride=(1, 1))
             (activation): SiLU(inplace=True)
             (scale_activation): Sigmoid()
           )
           (3): ConvNormActivation(
             (0): Conv2d(1152, 192, kernel_size=(1, 1), stride=(1, 1), bias=False)
             (1): BatchNorm2d(192, eps=1e-05, momentum=0.1, affine=True, track_running_stats=True)
           )
         )
         (stochastic_depth): StochasticDepth(p=0.17500000000000002, mode=row)
       )
     )
     (7): Sequential(
       (0): MBConv(
         (block): Sequential(
           (0): ConvNormActivation(
             (0): Conv2d(192, 1152, kernel_size=(1, 1), stride=(1, 1), bias=False)
             (1): BatchNorm2d(1152, eps=1e-05, momentum=0.1, affine=True, track_running_stats=True)
             (2): SiLU(inplace=True)
           )
           (1): ConvNormActivation(
             (0): Conv2d(1152, 1152, kernel_size=(3, 3), stride=(1, 1), padding=(1, 1), groups=1152, bias=False)
             (1): BatchNorm2d(1152, eps=1e-05, momentum=0.1, affine=True, track_running_stats=True)
             (2): SiLU(inplace=True)
           )
           (2): SqueezeExcitation(
             (avgpool): AdaptiveAvgPool2d(output_size=1)
             (fc1): Conv2d(1152, 48, kernel_size=(1, 1), stride=(1, 1))
             (fc2): Conv2d(48, 1152, kernel_size=(1, 1), stride=(1, 1))
             (activation): SiLU(inplace=True)
             (scale_activation): Sigmoid()
           )
           (3): ConvNormActivation(
             (0): Conv2d(1152, 320, kernel_size=(1, 1), stride=(1, 1), bias=False)
             (1): BatchNorm2d(320, eps=1e-05, momentum=0.1, affine=True, track_running_stats=True)
           )
         )
         (stochastic_depth): StochasticDepth(p=0.1875, mode=row)
       )
     )
     (8): ConvNormActivation(
       (0): Conv2d(320, 1280, kernel_size=(1, 1), stride=(1, 1), bias=False)
       (1): BatchNorm2d(1280, eps=1e-05, momentum=0.1, affine=True, track_running_stats=True)
       (2): SiLU(inplace=True)
     )
   )
 )]&lt;/pre&gt;
&lt;/div&gt;

&lt;/div&gt;

&lt;/div&gt;
&lt;/div&gt;

&lt;/div&gt;
    

&lt;div class=&quot;cell border-box-sizing text_cell rendered&quot;&gt;&lt;div class=&quot;inner_cell&quot;&gt;
&lt;div class=&quot;text_cell_render border-box-sizing rendered_html&quot;&gt;
&lt;p&gt;Head:&lt;/p&gt;
…
